[ INFO : 2024-03-28 14:45:18,084 ] - DeepGCCA(
  (model_list): ModuleList(
    (0): MlpNet(
      (layers): ModuleList(
        (0): Sequential(
          (0): Linear(in_features=2642, out_features=256, bias=True)
          (1): BatchNorm1d(256, eps=1e-05, momentum=0.1, affine=False, track_running_stats=True)
        )
        (1): Sequential(
          (0): Linear(in_features=256, out_features=512, bias=True)
          (1): BatchNorm1d(512, eps=1e-05, momentum=0.1, affine=False, track_running_stats=True)
        )
        (2): Sequential(
          (0): Linear(in_features=512, out_features=128, bias=True)
          (1): BatchNorm1d(128, eps=1e-05, momentum=0.1, affine=False, track_running_stats=True)
        )
        (3): Sequential(
          (0): Linear(in_features=128, out_features=1, bias=True)
          (1): BatchNorm1d(1, eps=1e-05, momentum=0.1, affine=False, track_running_stats=True)
        )
      )
    )
    (1): MlpNet(
      (layers): ModuleList(
        (0): Sequential(
          (0): Linear(in_features=3298, out_features=256, bias=True)
          (1): BatchNorm1d(256, eps=1e-05, momentum=0.1, affine=False, track_running_stats=True)
        )
        (1): Sequential(
          (0): Linear(in_features=256, out_features=512, bias=True)
          (1): BatchNorm1d(512, eps=1e-05, momentum=0.1, affine=False, track_running_stats=True)
        )
        (2): Sequential(
          (0): Linear(in_features=512, out_features=128, bias=True)
          (1): BatchNorm1d(128, eps=1e-05, momentum=0.1, affine=False, track_running_stats=True)
        )
        (3): Sequential(
          (0): Linear(in_features=128, out_features=1, bias=True)
          (1): BatchNorm1d(1, eps=1e-05, momentum=0.1, affine=False, track_running_stats=True)
        )
      )
    )
    (2): MlpNet(
      (layers): ModuleList(
        (0): Sequential(
          (0): Linear(in_features=437, out_features=256, bias=True)
          (1): BatchNorm1d(256, eps=1e-05, momentum=0.1, affine=False, track_running_stats=True)
        )
        (1): Sequential(
          (0): Linear(in_features=256, out_features=512, bias=True)
          (1): BatchNorm1d(512, eps=1e-05, momentum=0.1, affine=False, track_running_stats=True)
        )
        (2): Sequential(
          (0): Linear(in_features=512, out_features=128, bias=True)
          (1): BatchNorm1d(128, eps=1e-05, momentum=0.1, affine=False, track_running_stats=True)
        )
        (3): Sequential(
          (0): Linear(in_features=128, out_features=1, bias=True)
          (1): BatchNorm1d(1, eps=1e-05, momentum=0.1, affine=False, track_running_stats=True)
        )
      )
    )
  )
)
[ INFO : 2024-03-28 14:45:18,105 ] - Adam (
Parameter Group 0
    amsgrad: False
    betas: (0.9, 0.999)
    capturable: False
    differentiable: False
    eps: 1e-08
    foreach: None
    fused: None
    initial_lr: 0.05
    lr: 0.05
    maximize: False
    weight_decay: 1e-05
)
[ INFO : 2024-03-28 14:45:18,747 ] - Epoch 1/2 - time: 0.64 - training_loss: -3.1590
[ INFO : 2024-03-28 14:45:19,301 ] - Epoch 2/2 - time: 0.55 - training_loss: -3.3734
[ INFO : 2024-03-28 14:45:52,855 ] - DeepGCCA(
  (model_list): ModuleList(
    (0): MlpNet(
      (layers): ModuleList(
        (0): Sequential(
          (0): Linear(in_features=2642, out_features=256, bias=True)
          (1): BatchNorm1d(256, eps=1e-05, momentum=0.1, affine=False, track_running_stats=True)
        )
        (1): Sequential(
          (0): Linear(in_features=256, out_features=512, bias=True)
          (1): BatchNorm1d(512, eps=1e-05, momentum=0.1, affine=False, track_running_stats=True)
        )
        (2): Sequential(
          (0): Linear(in_features=512, out_features=128, bias=True)
          (1): BatchNorm1d(128, eps=1e-05, momentum=0.1, affine=False, track_running_stats=True)
        )
        (3): Sequential(
          (0): Linear(in_features=128, out_features=1, bias=True)
          (1): BatchNorm1d(1, eps=1e-05, momentum=0.1, affine=False, track_running_stats=True)
        )
      )
    )
    (1): MlpNet(
      (layers): ModuleList(
        (0): Sequential(
          (0): Linear(in_features=3298, out_features=256, bias=True)
          (1): BatchNorm1d(256, eps=1e-05, momentum=0.1, affine=False, track_running_stats=True)
        )
        (1): Sequential(
          (0): Linear(in_features=256, out_features=512, bias=True)
          (1): BatchNorm1d(512, eps=1e-05, momentum=0.1, affine=False, track_running_stats=True)
        )
        (2): Sequential(
          (0): Linear(in_features=512, out_features=128, bias=True)
          (1): BatchNorm1d(128, eps=1e-05, momentum=0.1, affine=False, track_running_stats=True)
        )
        (3): Sequential(
          (0): Linear(in_features=128, out_features=1, bias=True)
          (1): BatchNorm1d(1, eps=1e-05, momentum=0.1, affine=False, track_running_stats=True)
        )
      )
    )
    (2): MlpNet(
      (layers): ModuleList(
        (0): Sequential(
          (0): Linear(in_features=437, out_features=256, bias=True)
          (1): BatchNorm1d(256, eps=1e-05, momentum=0.1, affine=False, track_running_stats=True)
        )
        (1): Sequential(
          (0): Linear(in_features=256, out_features=512, bias=True)
          (1): BatchNorm1d(512, eps=1e-05, momentum=0.1, affine=False, track_running_stats=True)
        )
        (2): Sequential(
          (0): Linear(in_features=512, out_features=128, bias=True)
          (1): BatchNorm1d(128, eps=1e-05, momentum=0.1, affine=False, track_running_stats=True)
        )
        (3): Sequential(
          (0): Linear(in_features=128, out_features=1, bias=True)
          (1): BatchNorm1d(1, eps=1e-05, momentum=0.1, affine=False, track_running_stats=True)
        )
      )
    )
  )
)
[ INFO : 2024-03-28 14:45:52,869 ] - Adam (
Parameter Group 0
    amsgrad: False
    betas: (0.9, 0.999)
    capturable: False
    differentiable: False
    eps: 1e-08
    foreach: None
    fused: None
    initial_lr: 0.05
    lr: 0.05
    maximize: False
    weight_decay: 1e-05
)
[ INFO : 2024-03-28 14:45:53,071 ] - Epoch 1/2000 - time: 0.20 - training_loss: -2.8928
…
