[ INFO : 2024-01-05 15:06:33,512 ] - DeepGCCA(
  (model_list): ModuleList(
    (0): MlpNet(
      (layers): ModuleList(
        (0): Sequential(
          (0): Linear(in_features=2642, out_features=256, bias=True)
          (1): BatchNorm1d(256, eps=1e-05, momentum=0.1, affine=False, track_running_stats=True)
        )
        (1): Sequential(
          (0): Linear(in_features=256, out_features=512, bias=True)
          (1): BatchNorm1d(512, eps=1e-05, momentum=0.1, affine=False, track_running_stats=True)
        )
        (2): Sequential(
          (0): Linear(in_features=512, out_features=128, bias=True)
          (1): BatchNorm1d(128, eps=1e-05, momentum=0.1, affine=False, track_running_stats=True)
        )
        (3): Sequential(
          (0): Linear(in_features=128, out_features=1, bias=True)
          (1): BatchNorm1d(1, eps=1e-05, momentum=0.1, affine=False, track_running_stats=True)
        )
      )
    )
    (1): MlpNet(
      (layers): ModuleList(
        (0): Sequential(
          (0): Linear(in_features=3298, out_features=256, bias=True)
          (1): BatchNorm1d(256, eps=1e-05, momentum=0.1, affine=False, track_running_stats=True)
        )
        (1): Sequential(
          (0): Linear(in_features=256, out_features=512, bias=True)
          (1): BatchNorm1d(512, eps=1e-05, momentum=0.1, affine=False, track_running_stats=True)
        )
        (2): Sequential(
          (0): Linear(in_features=512, out_features=128, bias=True)
          (1): BatchNorm1d(128, eps=1e-05, momentum=0.1, affine=False, track_running_stats=True)
        )
        (3): Sequential(
          (0): Linear(in_features=128, out_features=1, bias=True)
          (1): BatchNorm1d(1, eps=1e-05, momentum=0.1, affine=False, track_running_stats=True)
        )
      )
    )
    (2): MlpNet(
      (layers): ModuleList(
        (0): Sequential(
          (0): Linear(in_features=437, out_features=256, bias=True)
          (1): BatchNorm1d(256, eps=1e-05, momentum=0.1, affine=False, track_running_stats=True)
        )
        (1): Sequential(
          (0): Linear(in_features=256, out_features=512, bias=True)
          (1): BatchNorm1d(512, eps=1e-05, momentum=0.1, affine=False, track_running_stats=True)
        )
        (2): Sequential(
          (0): Linear(in_features=512, out_features=128, bias=True)
          (1): BatchNorm1d(128, eps=1e-05, momentum=0.1, affine=False, track_running_stats=True)
        )
        (3): Sequential(
          (0): Linear(in_features=128, out_features=1, bias=True)
          (1): BatchNorm1d(1, eps=1e-05, momentum=0.1, affine=False, track_running_stats=True)
        )
      )
    )
  )
)
[ INFO : 2024-01-05 15:06:33,517 ] - Adam (
Parameter Group 0
    amsgrad: False
    betas: (0.9, 0.999)
    capturable: False
    differentiable: False
    eps: 1e-08
    foreach: None
    fused: None
    initial_lr: 0.05
    lr: 0.05
    maximize: False
    weight_decay: 1e-05
)
[ INFO : 2024-01-05 15:06:33,618 ] - Epoch 1/2 - time: 0.10 - training_loss: -2.8765
[ INFO : 2024-01-05 15:06:33,712 ] - Epoch 2/2 - time: 0.09 - training_loss: -3.7521
[ INFO : 2024-01-05 15:13:31,879 ] - DeepGCCA(
  (model_list): ModuleList(
    (0): MlpNet(
      (layers): ModuleList(
        (0): Sequential(
          (0): Linear(in_features=2642, out_features=256, bias=True)
          (1): BatchNorm1d(256, eps=1e-05, momentum=0.1, affine=False, track_running_stats=True)
        )
        (1): Sequential(
          (0): Linear(in_features=256, out_features=512, bias=True)
          (1): BatchNorm1d(512, eps=1e-05, momentum=0.1, affine=False, track_running_stats=True)
        )
        (2): Sequential(
          (0): Linear(in_features=512, out_features=128, bias=True)
          (1): BatchNorm1d(128, eps=1e-05, momentum=0.1, affine=False, track_running_stats=True)
        )
        (3): Sequential(
          (0): Linear(in_features=128, out_features=1, bias=True)
          (1): BatchNorm1d(1, eps=1e-05, momentum=0.1, affine=False, track_running_stats=True)
        )
      )
    )
    (1): MlpNet(
      (layers): ModuleList(
        (0): Sequential(
          (0): Linear(in_features=3298, out_features=256, bias=True)
          (1): BatchNorm1d(256, eps=1e-05, momentum=0.1, affine=False, track_running_stats=True)
        )
        (1): Sequential(
          (0): Linear(in_features=256, out_features=512, bias=True)
          (1): BatchNorm1d(512, eps=1e-05, momentum=0.1, affine=False, track_running_stats=True)
        )
        (2): Sequential(
          (0): Linear(in_features=512, out_features=128, bias=True)
          (1): BatchNorm1d(128, eps=1e-05, momentum=0.1, affine=False, track_running_stats=True)
        )
        (3): Sequential(
          (0): Linear(in_features=128, out_features=1, bias=True)
          (1): BatchNorm1d(1, eps=1e-05, momentum=0.1, affine=False, track_running_stats=True)
        )
      )
    )
    (2): MlpNet(
      (layers): ModuleList(
        (0): Sequential(
          (0): Linear(in_features=437, out_features=256, bias=True)
          (1): BatchNorm1d(256, eps=1e-05, momentum=0.1, affine=False, track_running_stats=True)
        )
        (1): Sequential(
          (0): Linear(in_features=256, out_features=512, bias=True)
          (1): BatchNorm1d(512, eps=1e-05, momentum=0.1, affine=False, track_running_stats=True)
        )
        (2): Sequential(
          (0): Linear(in_features=512, out_features=128, bias=True)
          (1): BatchNorm1d(128, eps=1e-05, momentum=0.1, affine=False, track_running_stats=True)
        )
        (3): Sequential(
          (0): Linear(in_features=128, out_features=1, bias=True)
          (1): BatchNorm1d(1, eps=1e-05, momentum=0.1, affine=False, track_running_stats=True)
        )
      )
    )
  )
)
[ INFO : 2024-01-05 15:13:31,885 ] - Adam (
Parameter Group 0
    amsgrad: False
    betas: (0.9, 0.999)
    capturable: False
    differentiable: False
    eps: 1e-08
    foreach: None
    fused: None
    initial_lr: 0.05
    lr: 0.05
    maximize: False
    weight_decay: 1e-05
)
[ INFO : 2024-01-05 15:13:31,997 ] - Epoch 1/2 - time: 0.11 - training_loss: -2.9416
[ INFO : 2024-01-05 15:13:32,090 ] - Epoch 2/2 - time: 0.09 - training_loss: -3.6372
[ INFO : 2024-01-05 15:14:25,674 ] - DeepGCCA(
  (model_list): ModuleList(
    (0): MlpNet(
      (layers): ModuleList(
        (0): Sequential(
          (0): Linear(in_features=2642, out_features=256, bias=True)
          (1): BatchNorm1d(256, eps=1e-05, momentum=0.1, affine=False, track_running_stats=True)
        )
        (1): Sequential(
          (0): Linear(in_features=256, out_features=512, bias=True)
          (1): BatchNorm1d(512, eps=1e-05, momentum=0.1, affine=False, track_running_stats=True)
        )
        (2): Sequential(
          (0): Linear(in_features=512, out_features=128, bias=True)
          (1): BatchNorm1d(128, eps=1e-05, momentum=0.1, affine=False, track_running_stats=True)
        )
        (3): Sequential(
          (0): Linear(in_features=128, out_features=1, bias=True)
          (1): BatchNorm1d(1, eps=1e-05, momentum=0.1, affine=False, track_running_stats=True)
        )
      )
    )
    (1): MlpNet(
      (layers): ModuleList(
        (0): Sequential(
          (0): Linear(in_features=3298, out_features=256, bias=True)
          (1): BatchNorm1d(256, eps=1e-05, momentum=0.1, affine=False, track_running_stats=True)
        )
        (1): Sequential(
          (0): Linear(in_features=256, out_features=512, bias=True)
          (1): BatchNorm1d(512, eps=1e-05, momentum=0.1, affine=False, track_running_stats=True)
        )
        (2): Sequential(
          (0): Linear(in_features=512, out_features=128, bias=True)
          (1): BatchNorm1d(128, eps=1e-05, momentum=0.1, affine=False, track_running_stats=True)
        )
        (3): Sequential(
          (0): Linear(in_features=128, out_features=1, bias=True)
          (1): BatchNorm1d(1, eps=1e-05, momentum=0.1, affine=False, track_running_stats=True)
        )
      )
    )
    (2): MlpNet(
      (layers): ModuleList(
        (0): Sequential(
          (0): Linear(in_features=437, out_features=256, bias=True)
          (1): BatchNorm1d(256, eps=1e-05, momentum=0.1, affine=False, track_running_stats=True)
        )
        (1): Sequential(
          (0): Linear(in_features=256, out_features=512, bias=True)
          (1): BatchNorm1d(512, eps=1e-05, momentum=0.1, affine=False, track_running_stats=True)
        )
        (2): Sequential(
          (0): Linear(in_features=512, out_features=128, bias=True)
          (1): BatchNorm1d(128, eps=1e-05, momentum=0.1, affine=False, track_running_stats=True)
        )
        (3): Sequential(
          (0): Linear(in_features=128, out_features=1, bias=True)
          (1): BatchNorm1d(1, eps=1e-05, momentum=0.1, affine=False, track_running_stats=True)
        )
      )
    )
  )
)
[ INFO : 2024-01-05 15:14:25,681 ] - Adam (
Parameter Group 0
    amsgrad: False
    betas: (0.9, 0.999)
    capturable: False
    differentiable: False
    eps: 1e-08
    foreach: None
    fused: None
    initial_lr: 0.05
    lr: 0.05
    maximize: False
    weight_decay: 1e-05
)
[ INFO : 2024-01-05 15:14:25,802 ] - Epoch 1/2 - time: 0.12 - training_loss: -3.0364
[ INFO : 2024-01-05 15:14:25,906 ] - Epoch 2/2 - time: 0.10 - training_loss: -4.5822
[ INFO : 2024-01-05 15:15:02,593 ] - DeepGCCA(
  (model_list): ModuleList(
    (0): MlpNet(
      (layers): ModuleList(
        (0): Sequential(
          (0): Linear(in_features=2642, out_features=256, bias=True)
          (1): BatchNorm1d(256, eps=1e-05, momentum=0.1, affine=False, track_running_stats=True)
        )
        (1): Sequential(
          (0): Linear(in_features=256, out_features=512, bias=True)
          (1): BatchNorm1d(512, eps=1e-05, momentum=0.1, affine=False, track_running_stats=True)
        )
        (2): Sequential(
          (0): Linear(in_features=512, out_features=128, bias=True)
          (1): BatchNorm1d(128, eps=1e-05, momentum=0.1, affine=False, track_running_stats=True)
        )
        (3): Sequential(
          (0): Linear(in_features=128, out_features=1, bias=True)
          (1): BatchNorm1d(1, eps=1e-05, momentum=0.1, affine=False, track_running_stats=True)
        )
      )
    )
    (1): MlpNet(
      (layers): ModuleList(
        (0): Sequential(
          (0): Linear(in_features=3298, out_features=256, bias=True)
          (1): BatchNorm1d(256, eps=1e-05, momentum=0.1, affine=False, track_running_stats=True)
        )
        (1): Sequential(
          (0): Linear(in_features=256, out_features=512, bias=True)
          (1): BatchNorm1d(512, eps=1e-05, momentum=0.1, affine=False, track_running_stats=True)
        )
        (2): Sequential(
          (0): Linear(in_features=512, out_features=128, bias=True)
          (1): BatchNorm1d(128, eps=1e-05, momentum=0.1, affine=False, track_running_stats=True)
        )
        (3): Sequential(
          (0): Linear(in_features=128, out_features=1, bias=True)
          (1): BatchNorm1d(1, eps=1e-05, momentum=0.1, affine=False, track_running_stats=True)
        )
      )
    )
    (2): MlpNet(
      (layers): ModuleList(
        (0): Sequential(
          (0): Linear(in_features=437, out_features=256, bias=True)
          (1): BatchNorm1d(256, eps=1e-05, momentum=0.1, affine=False, track_running_stats=True)
        )
        (1): Sequential(
          (0): Linear(in_features=256, out_features=512, bias=True)
          (1): BatchNorm1d(512, eps=1e-05, momentum=0.1, affine=False, track_running_stats=True)
        )
        (2): Sequential(
          (0): Linear(in_features=512, out_features=128, bias=True)
          (1): BatchNorm1d(128, eps=1e-05, momentum=0.1, affine=False, track_running_stats=True)
        )
        (3): Sequential(
          (0): Linear(in_features=128, out_features=1, bias=True)
          (1): BatchNorm1d(1, eps=1e-05, momentum=0.1, affine=False, track_running_stats=True)
        )
      )
    )
  )
)
[ INFO : 2024-01-05 15:15:02,597 ] - Adam (
Parameter Group 0
    amsgrad: False
    betas: (0.9, 0.999)
    capturable: False
    differentiable: False
    eps: 1e-08
    foreach: None
    fused: None
    initial_lr: 0.05
    lr: 0.05
    maximize: False
    weight_decay: 1e-05
)
[ INFO : 2024-01-05 15:15:02,699 ] - Epoch 1/2 - time: 0.10 - training_loss: -3.1325
[ INFO : 2024-01-05 15:15:02,795 ] - Epoch 2/2 - time: 0.10 - training_loss: -3.4678
[ INFO : 2024-01-05 15:15:18,840 ] - DeepGCCA(
  (model_list): ModuleList(
    (0): MlpNet(
      (layers): ModuleList(
        (0): Sequential(
          (0): Linear(in_features=2642, out_features=256, bias=True)
          (1): BatchNorm1d(256, eps=1e-05, momentum=0.1, affine=False, track_running_stats=True)
        )
        (1): Sequential(
          (0): Linear(in_features=256, out_features=512, bias=True)
          (1): BatchNorm1d(512, eps=1e-05, momentum=0.1, affine=False, track_running_stats=True)
        )
        (2): Sequential(
          (0): Linear(in_features=512, out_features=128, bias=True)
          (1): BatchNorm1d(128, eps=1e-05, momentum=0.1, affine=False, track_running_stats=True)
        )
        (3): Sequential(
          (0): Linear(in_features=128, out_features=1, bias=True)
          (1): BatchNorm1d(1, eps=1e-05, momentum=0.1, affine=False, track_running_stats=True)
        )
      )
    )
    (1): MlpNet(
      (layers): ModuleList(
        (0): Sequential(
          (0): Linear(in_features=3298, out_features=256, bias=True)
          (1): BatchNorm1d(256, eps=1e-05, momentum=0.1, affine=False, track_running_stats=True)
        )
        (1): Sequential(
          (0): Linear(in_features=256, out_features=512, bias=True)
          (1): BatchNorm1d(512, eps=1e-05, momentum=0.1, affine=False, track_running_stats=True)
        )
        (2): Sequential(
          (0): Linear(in_features=512, out_features=128, bias=True)
          (1): BatchNorm1d(128, eps=1e-05, momentum=0.1, affine=False, track_running_stats=True)
        )
        (3): Sequential(
          (0): Linear(in_features=128, out_features=1, bias=True)
          (1): BatchNorm1d(1, eps=1e-05, momentum=0.1, affine=False, track_running_stats=True)
        )
      )
    )
    (2): MlpNet(
      (layers): ModuleList(
        (0): Sequential(
          (0): Linear(in_features=437, out_features=256, bias=True)
          (1): BatchNorm1d(256, eps=1e-05, momentum=0.1, affine=False, track_running_stats=True)
        )
        (1): Sequential(
          (0): Linear(in_features=256, out_features=512, bias=True)
          (1): BatchNorm1d(512, eps=1e-05, momentum=0.1, affine=False, track_running_stats=True)
        )
        (2): Sequential(
          (0): Linear(in_features=512, out_features=128, bias=True)
          (1): BatchNorm1d(128, eps=1e-05, momentum=0.1, affine=False, track_running_stats=True)
        )
        (3): Sequential(
          (0): Linear(in_features=128, out_features=1, bias=True)
          (1): BatchNorm1d(1, eps=1e-05, momentum=0.1, affine=False, track_running_stats=True)
        )
      )
    )
  )
)
[ INFO : 2024-01-05 15:15:18,844 ] - Adam (
Parameter Group 0
    amsgrad: False
    betas: (0.9, 0.999)
    capturable: False
    differentiable: False
    eps: 1e-08
    foreach: None
    fused: None
    initial_lr: 0.05
    lr: 0.05
    maximize: False
    weight_decay: 1e-05
)
[ INFO : 2024-01-05 15:15:18,946 ] - Epoch 1/2 - time: 0.10 - training_loss: -3.0509
[ INFO : 2024-01-05 15:15:19,048 ] - Epoch 2/2 - time: 0.10 - training_loss: -4.5769
[ INFO : 2024-01-05 15:15:31,864 ] - DeepGCCA(
  (model_list): ModuleList(
    (0): MlpNet(
      (layers): ModuleList(
        (0): Sequential(
          (0): Linear(in_features=2642, out_features=256, bias=True)
          (1): BatchNorm1d(256, eps=1e-05, momentum=0.1, affine=False, track_running_stats=True)
        )
        (1): Sequential(
          (0): Linear(in_features=256, out_features=512, bias=True)
          (1): BatchNorm1d(512, eps=1e-05, momentum=0.1, affine=False, track_running_stats=True)
        )
        (2): Sequential(
          (0): Linear(in_features=512, out_features=128, bias=True)
          (1): BatchNorm1d(128, eps=1e-05, momentum=0.1, affine=False, track_running_stats=True)
        )
        (3): Sequential(
          (0): Linear(in_features=128, out_features=1, bias=True)
          (1): BatchNorm1d(1, eps=1e-05, momentum=0.1, affine=False, track_running_stats=True)
        )
      )
    )
    (1): MlpNet(
      (layers): ModuleList(
        (0): Sequential(
          (0): Linear(in_features=3298, out_features=256, bias=True)
          (1): BatchNorm1d(256, eps=1e-05, momentum=0.1, affine=False, track_running_stats=True)
        )
        (1): Sequential(
          (0): Linear(in_features=256, out_features=512, bias=True)
          (1): BatchNorm1d(512, eps=1e-05, momentum=0.1, affine=False, track_running_stats=True)
        )
        (2): Sequential(
          (0): Linear(in_features=512, out_features=128, bias=True)
          (1): BatchNorm1d(128, eps=1e-05, momentum=0.1, affine=False, track_running_stats=True)
        )
        (3): Sequential(
          (0): Linear(in_features=128, out_features=1, bias=True)
          (1): BatchNorm1d(1, eps=1e-05, momentum=0.1, affine=False, track_running_stats=True)
        )
      )
    )
    (2): MlpNet(
      (layers): ModuleList(
        (0): Sequential(
          (0): Linear(in_features=437, out_features=256, bias=True)
          (1): BatchNorm1d(256, eps=1e-05, momentum=0.1, affine=False, track_running_stats=True)
        )
        (1): Sequential(
          (0): Linear(in_features=256, out_features=512, bias=True)
          (1): BatchNorm1d(512, eps=1e-05, momentum=0.1, affine=False, track_running_stats=True)
        )
        (2): Sequential(
          (0): Linear(in_features=512, out_features=128, bias=True)
          (1): BatchNorm1d(128, eps=1e-05, momentum=0.1, affine=False, track_running_stats=True)
        )
        (3): Sequential(
          (0): Linear(in_features=128, out_features=1, bias=True)
          (1): BatchNorm1d(1, eps=1e-05, momentum=0.1, affine=False, track_running_stats=True)
        )
      )
    )
  )
)
[ INFO : 2024-01-05 15:15:31,868 ] - Adam (
Parameter Group 0
    amsgrad: False
    betas: (0.9, 0.999)
    capturable: False
    differentiable: False
    eps: 1e-08
    foreach: None
    fused: None
    initial_lr: 0.05
    lr: 0.05
    maximize: False
    weight_decay: 1e-05
)
[ INFO : 2024-01-05 15:15:31,968 ] - Epoch 1/2000 - time: 0.10 - training_loss: -2.6171
…
[ INFO : 2024-01-05 15:19:46,690 ] - Epoch 1996/2000 - time: 0.11 - training_loss: -8.9651
[ INFO : 2024-01-05 15:19:46,799 ] - Epoch 1997/2000 - time: 0.11 - training_loss: -8.9652
[ INFO : 2024-01-05 15:19:46,910 ] - Epoch 1998/2000 - time: 0.11 - training_loss: -8.9652
[ INFO : 2024-01-05 15:19:47,020 ] - Epoch 1999/2000 - time: 0.11 - training_loss: -8.9652
[ INFO : 2024-01-05 15:19:47,129 ] - Epoch 2000/2000 - time: 0.11 - training_loss: -8.9652
[ INFO : 2024-01-05 15:22:22,017 ] - DeepGCCA(
  (model_list): ModuleList(
    (0): MlpNet(
      (layers): ModuleList(
        (0): Sequential(
          (0): Linear(in_features=2642, out_features=256, bias=True)
          (1): BatchNorm1d(256, eps=1e-05, momentum=0.1, affine=False, track_running_stats=True)
        )
        (1): Sequential(
          (0): Linear(in_features=256, out_features=512, bias=True)
          (1): BatchNorm1d(512, eps=1e-05, momentum=0.1, affine=False, track_running_stats=True)
        )
        (2): Sequential(
          (0): Linear(in_features=512, out_features=128, bias=True)
          (1): BatchNorm1d(128, eps=1e-05, momentum=0.1, affine=False, track_running_stats=True)
        )
        (3): Sequential(
          (0): Linear(in_features=128, out_features=1, bias=True)
          (1): BatchNorm1d(1, eps=1e-05, momentum=0.1, affine=False, track_running_stats=True)
        )
      )
    )
    (1): MlpNet(
      (layers): ModuleList(
        (0): Sequential(
          (0): Linear(in_features=3298, out_features=256, bias=True)
          (1): BatchNorm1d(256, eps=1e-05, momentum=0.1, affine=False, track_running_stats=True)
        )
        (1): Sequential(
          (0): Linear(in_features=256, out_features=512, bias=True)
          (1): BatchNorm1d(512, eps=1e-05, momentum=0.1, affine=False, track_running_stats=True)
        )
        (2): Sequential(
          (0): Linear(in_features=512, out_features=128, bias=True)
          (1): BatchNorm1d(128, eps=1e-05, momentum=0.1, affine=False, track_running_stats=True)
        )
        (3): Sequential(
          (0): Linear(in_features=128, out_features=1, bias=True)
          (1): BatchNorm1d(1, eps=1e-05, momentum=0.1, affine=False, track_running_stats=True)
        )
      )
    )
    (2): MlpNet(
      (layers): ModuleList(
        (0): Sequential(
          (0): Linear(in_features=437, out_features=256, bias=True)
          (1): BatchNorm1d(256, eps=1e-05, momentum=0.1, affine=False, track_running_stats=True)
        )
        (1): Sequential(
          (0): Linear(in_features=256, out_features=512, bias=True)
          (1): BatchNorm1d(512, eps=1e-05, momentum=0.1, affine=False, track_running_stats=True)
        )
        (2): Sequential(
          (0): Linear(in_features=512, out_features=128, bias=True)
          (1): BatchNorm1d(128, eps=1e-05, momentum=0.1, affine=False, track_running_stats=True)
        )
        (3): Sequential(
          (0): Linear(in_features=128, out_features=1, bias=True)
          (1): BatchNorm1d(1, eps=1e-05, momentum=0.1, affine=False, track_running_stats=True)
        )
      )
    )
  )
)
[ INFO : 2024-01-05 15:22:22,024 ] - Adam (
Parameter Group 0
    amsgrad: False
    betas: (0.9, 0.999)
    capturable: False
    differentiable: False
    eps: 1e-08
    foreach: None
    fused: None
    initial_lr: 0.05
    lr: 0.05
    maximize: False
    weight_decay: 1e-05
)
[ INFO : 2024-01-05 15:22:22,142 ] - Epoch 1/2000 - time: 0.12 - training_loss: -3.1432
…
[ INFO : 2024-01-05 15:22:23,891 ] - Epoch 17/2000 - time: 0.11 - training_loss: -4.1730
[ INFO : 2024-01-05 15:22:24,003 ] - Epoch 18/2000 - time: 0.11 - training_loss: -4.2807
[ INFO : 2024-01-05 15:22:24,114 ] - Epoch 19/2000 - time: 0.11 - training_loss: -4.3853
[ INFO : 2024-01-05 15:22:24,237 ] - Epoch 20/2000 - time: 0.12 - training_loss: -4.4889
[ INFO : 2024-01-05 15:22:24,351 ] - Epoch 21/2000 - time: 0.11 - training_loss: -4.5921
[ INFO : 2024-01-05 15:22:35,075 ] - DeepGCCA(
  (model_list): ModuleList(
    (0): MlpNet(
      (layers): ModuleList(
        (0): Sequential(
          (0): Linear(in_features=2642, out_features=256, bias=True)
          (1): BatchNorm1d(256, eps=1e-05, momentum=0.1, affine=False, track_running_stats=True)
        )
        (1): Sequential(
          (0): Linear(in_features=256, out_features=512, bias=True)
          (1): BatchNorm1d(512, eps=1e-05, momentum=0.1, affine=False, track_running_stats=True)
        )
        (2): Sequential(
          (0): Linear(in_features=512, out_features=128, bias=True)
          (1): BatchNorm1d(128, eps=1e-05, momentum=0.1, affine=False, track_running_stats=True)
        )
        (3): Sequential(
          (0): Linear(in_features=128, out_features=1, bias=True)
          (1): BatchNorm1d(1, eps=1e-05, momentum=0.1, affine=False, track_running_stats=True)
        )
      )
    )
    (1): MlpNet(
      (layers): ModuleList(
        (0): Sequential(
          (0): Linear(in_features=3298, out_features=256, bias=True)
          (1): BatchNorm1d(256, eps=1e-05, momentum=0.1, affine=False, track_running_stats=True)
        )
        (1): Sequential(
          (0): Linear(in_features=256, out_features=512, bias=True)
          (1): BatchNorm1d(512, eps=1e-05, momentum=0.1, affine=False, track_running_stats=True)
        )
        (2): Sequential(
          (0): Linear(in_features=512, out_features=128, bias=True)
          (1): BatchNorm1d(128, eps=1e-05, momentum=0.1, affine=False, track_running_stats=True)
        )
        (3): Sequential(
          (0): Linear(in_features=128, out_features=1, bias=True)
          (1): BatchNorm1d(1, eps=1e-05, momentum=0.1, affine=False, track_running_stats=True)
        )
      )
    )
    (2): MlpNet(
      (layers): ModuleList(
        (0): Sequential(
          (0): Linear(in_features=437, out_features=256, bias=True)
          (1): BatchNorm1d(256, eps=1e-05, momentum=0.1, affine=False, track_running_stats=True)
        )
        (1): Sequential(
          (0): Linear(in_features=256, out_features=512, bias=True)
          (1): BatchNorm1d(512, eps=1e-05, momentum=0.1, affine=False, track_running_stats=True)
        )
        (2): Sequential(
          (0): Linear(in_features=512, out_features=128, bias=True)
          (1): BatchNorm1d(128, eps=1e-05, momentum=0.1, affine=False, track_running_stats=True)
        )
        (3): Sequential(
          (0): Linear(in_features=128, out_features=1, bias=True)
          (1): BatchNorm1d(1, eps=1e-05, momentum=0.1, affine=False, track_running_stats=True)
        )
      )
    )
  )
)
[ INFO : 2024-01-05 15:22:35,081 ] - Adam (
Parameter Group 0
    amsgrad: False
    betas: (0.9, 0.999)
    capturable: False
    differentiable: False
    eps: 1e-08
    foreach: None
    fused: None
    initial_lr: 0.05
    lr: 0.05
    maximize: False
    weight_decay: 1e-05
)
[ INFO : 2024-01-05 15:22:35,207 ] - Epoch 1/2 - time: 0.12 - training_loss: -3.3864
[ INFO : 2024-01-05 15:22:35,318 ] - Epoch 2/2 - time: 0.11 - training_loss: -4.2332
[ INFO : 2024-01-05 15:22:47,233 ] - DeepGCCA(
  (model_list): ModuleList(
    (0): MlpNet(
      (layers): ModuleList(
        (0): Sequential(
          (0): Linear(in_features=2642, out_features=256, bias=True)
          (1): BatchNorm1d(256, eps=1e-05, momentum=0.1, affine=False, track_running_stats=True)
        )
        (1): Sequential(
          (0): Linear(in_features=256, out_features=512, bias=True)
          (1): BatchNorm1d(512, eps=1e-05, momentum=0.1, affine=False, track_running_stats=True)
        )
        (2): Sequential(
          (0): Linear(in_features=512, out_features=128, bias=True)
          (1): BatchNorm1d(128, eps=1e-05, momentum=0.1, affine=False, track_running_stats=True)
        )
        (3): Sequential(
          (0): Linear(in_features=128, out_features=1, bias=True)
          (1): BatchNorm1d(1, eps=1e-05, momentum=0.1, affine=False, track_running_stats=True)
        )
      )
    )
    (1): MlpNet(
      (layers): ModuleList(
        (0): Sequential(
          (0): Linear(in_features=3298, out_features=256, bias=True)
          (1): BatchNorm1d(256, eps=1e-05, momentum=0.1, affine=False, track_running_stats=True)
        )
        (1): Sequential(
          (0): Linear(in_features=256, out_features=512, bias=True)
          (1): BatchNorm1d(512, eps=1e-05, momentum=0.1, affine=False, track_running_stats=True)
        )
        (2): Sequential(
          (0): Linear(in_features=512, out_features=128, bias=True)
          (1): BatchNorm1d(128, eps=1e-05, momentum=0.1, affine=False, track_running_stats=True)
        )
        (3): Sequential(
          (0): Linear(in_features=128, out_features=1, bias=True)
          (1): BatchNorm1d(1, eps=1e-05, momentum=0.1, affine=False, track_running_stats=True)
        )
      )
    )
    (2): MlpNet(
      (layers): ModuleList(
        (0): Sequential(
          (0): Linear(in_features=437, out_features=256, bias=True)
          (1): BatchNorm1d(256, eps=1e-05, momentum=0.1, affine=False, track_running_stats=True)
        )
        (1): Sequential(
          (0): Linear(in_features=256, out_features=512, bias=True)
          (1): BatchNorm1d(512, eps=1e-05, momentum=0.1, affine=False, track_running_stats=True)
        )
        (2): Sequential(
          (0): Linear(in_features=512, out_features=128, bias=True)
          (1): BatchNorm1d(128, eps=1e-05, momentum=0.1, affine=False, track_running_stats=True)
        )
        (3): Sequential(
          (0): Linear(in_features=128, out_features=1, bias=True)
          (1): BatchNorm1d(1, eps=1e-05, momentum=0.1, affine=False, track_running_stats=True)
        )
      )
    )
  )
)
[ INFO : 2024-01-05 15:22:47,239 ] - Adam (
Parameter Group 0
    amsgrad: False
    betas: (0.9, 0.999)
    capturable: False
    differentiable: False
    eps: 1e-08
    foreach: None
    fused: None
    initial_lr: 0.05
    lr: 0.05
    maximize: False
    weight_decay: 1e-05
)
[ INFO : 2024-01-05 15:22:47,363 ] - Epoch 1/2 - time: 0.12 - training_loss: -2.6658
[ INFO : 2024-01-05 15:22:47,472 ] - Epoch 2/2 - time: 0.11 - training_loss: -3.5681
[ INFO : 2024-01-05 15:27:41,780 ] - DeepGCCA(
  (model_list): ModuleList(
    (0): MlpNet(
      (layers): ModuleList(
        (0): Sequential(
          (0): Linear(in_features=2642, out_features=256, bias=True)
          (1): BatchNorm1d(256, eps=1e-05, momentum=0.1, affine=False, track_running_stats=True)
        )
        (1): Sequential(
          (0): Linear(in_features=256, out_features=512, bias=True)
          (1): BatchNorm1d(512, eps=1e-05, momentum=0.1, affine=False, track_running_stats=True)
        )
        (2): Sequential(
          (0): Linear(in_features=512, out_features=128, bias=True)
          (1): BatchNorm1d(128, eps=1e-05, momentum=0.1, affine=False, track_running_stats=True)
        )
        (3): Sequential(
          (0): Linear(in_features=128, out_features=1, bias=True)
          (1): BatchNorm1d(1, eps=1e-05, momentum=0.1, affine=False, track_running_stats=True)
        )
      )
    )
    (1): MlpNet(
      (layers): ModuleList(
        (0): Sequential(
          (0): Linear(in_features=3298, out_features=256, bias=True)
          (1): BatchNorm1d(256, eps=1e-05, momentum=0.1, affine=False, track_running_stats=True)
        )
        (1): Sequential(
          (0): Linear(in_features=256, out_features=512, bias=True)
          (1): BatchNorm1d(512, eps=1e-05, momentum=0.1, affine=False, track_running_stats=True)
        )
        (2): Sequential(
          (0): Linear(in_features=512, out_features=128, bias=True)
          (1): BatchNorm1d(128, eps=1e-05, momentum=0.1, affine=False, track_running_stats=True)
        )
        (3): Sequential(
          (0): Linear(in_features=128, out_features=1, bias=True)
          (1): BatchNorm1d(1, eps=1e-05, momentum=0.1, affine=False, track_running_stats=True)
        )
      )
    )
    (2): MlpNet(
      (layers): ModuleList(
        (0): Sequential(
          (0): Linear(in_features=437, out_features=256, bias=True)
          (1): BatchNorm1d(256, eps=1e-05, momentum=0.1, affine=False, track_running_stats=True)
        )
        (1): Sequential(
          (0): Linear(in_features=256, out_features=512, bias=True)
          (1): BatchNorm1d(512, eps=1e-05, momentum=0.1, affine=False, track_running_stats=True)
        )
        (2): Sequential(
          (0): Linear(in_features=512, out_features=128, bias=True)
          (1): BatchNorm1d(128, eps=1e-05, momentum=0.1, affine=False, track_running_stats=True)
        )
        (3): Sequential(
          (0): Linear(in_features=128, out_features=1, bias=True)
          (1): BatchNorm1d(1, eps=1e-05, momentum=0.1, affine=False, track_running_stats=True)
        )
      )
    )
  )
)
[ INFO : 2024-01-05 15:27:41,785 ] - Adam (
Parameter Group 0
    amsgrad: False
    betas: (0.9, 0.999)
    capturable: False
    differentiable: False
    eps: 1e-08
    foreach: None
    fused: None
    initial_lr: 0.05
    lr: 0.05
    maximize: False
    weight_decay: 1e-05
)
[ INFO : 2024-01-05 15:27:41,907 ] - Epoch 1/2 - time: 0.12 - training_loss: -3.0500
[ INFO : 2024-01-05 15:27:42,013 ] - Epoch 2/2 - time: 0.10 - training_loss: -3.6575
[ INFO : 2024-01-05 15:28:32,271 ] - DeepGCCA(
  (model_list): ModuleList(
    (0): MlpNet(
      (layers): ModuleList(
        (0): Sequential(
          (0): Linear(in_features=2642, out_features=256, bias=True)
          (1): BatchNorm1d(256, eps=1e-05, momentum=0.1, affine=False, track_running_stats=True)
        )
        (1): Sequential(
          (0): Linear(in_features=256, out_features=512, bias=True)
          (1): BatchNorm1d(512, eps=1e-05, momentum=0.1, affine=False, track_running_stats=True)
        )
        (2): Sequential(
          (0): Linear(in_features=512, out_features=128, bias=True)
          (1): BatchNorm1d(128, eps=1e-05, momentum=0.1, affine=False, track_running_stats=True)
        )
        (3): Sequential(
          (0): Linear(in_features=128, out_features=1, bias=True)
          (1): BatchNorm1d(1, eps=1e-05, momentum=0.1, affine=False, track_running_stats=True)
        )
      )
    )
    (1): MlpNet(
      (layers): ModuleList(
        (0): Sequential(
          (0): Linear(in_features=3298, out_features=256, bias=True)
          (1): BatchNorm1d(256, eps=1e-05, momentum=0.1, affine=False, track_running_stats=True)
        )
        (1): Sequential(
          (0): Linear(in_features=256, out_features=512, bias=True)
          (1): BatchNorm1d(512, eps=1e-05, momentum=0.1, affine=False, track_running_stats=True)
        )
        (2): Sequential(
          (0): Linear(in_features=512, out_features=128, bias=True)
          (1): BatchNorm1d(128, eps=1e-05, momentum=0.1, affine=False, track_running_stats=True)
        )
        (3): Sequential(
          (0): Linear(in_features=128, out_features=1, bias=True)
          (1): BatchNorm1d(1, eps=1e-05, momentum=0.1, affine=False, track_running_stats=True)
        )
      )
    )
    (2): MlpNet(
      (layers): ModuleList(
        (0): Sequential(
          (0): Linear(in_features=437, out_features=256, bias=True)
          (1): BatchNorm1d(256, eps=1e-05, momentum=0.1, affine=False, track_running_stats=True)
        )
        (1): Sequential(
          (0): Linear(in_features=256, out_features=512, bias=True)
          (1): BatchNorm1d(512, eps=1e-05, momentum=0.1, affine=False, track_running_stats=True)
        )
        (2): Sequential(
          (0): Linear(in_features=512, out_features=128, bias=True)
          (1): BatchNorm1d(128, eps=1e-05, momentum=0.1, affine=False, track_running_stats=True)
        )
        (3): Sequential(
          (0): Linear(in_features=128, out_features=1, bias=True)
          (1): BatchNorm1d(1, eps=1e-05, momentum=0.1, affine=False, track_running_stats=True)
        )
      )
    )
  )
)
[ INFO : 2024-01-05 15:28:32,276 ] - Adam (
Parameter Group 0
    amsgrad: False
    betas: (0.9, 0.999)
    capturable: False
    differentiable: False
    eps: 1e-08
    foreach: None
    fused: None
    initial_lr: 0.05
    lr: 0.05
    maximize: False
    weight_decay: 1e-05
)
[ INFO : 2024-01-05 15:28:32,409 ] - Epoch 1/2 - time: 0.13 - training_loss: -3.0980
[ INFO : 2024-01-05 15:28:32,527 ] - Epoch 2/2 - time: 0.12 - training_loss: -2.7998
[ INFO : 2024-01-05 17:04:58,303 ] - DeepGCCA(
  (model_list): ModuleList(
    (0): MlpNet(
      (layers): ModuleList(
        (0): Sequential(
          (0): Linear(in_features=2642, out_features=256, bias=True)
          (1): BatchNorm1d(256, eps=1e-05, momentum=0.1, affine=False, track_running_stats=True)
        )
        (1): Sequential(
          (0): Linear(in_features=256, out_features=512, bias=True)
          (1): BatchNorm1d(512, eps=1e-05, momentum=0.1, affine=False, track_running_stats=True)
        )
        (2): Sequential(
          (0): Linear(in_features=512, out_features=128, bias=True)
          (1): BatchNorm1d(128, eps=1e-05, momentum=0.1, affine=False, track_running_stats=True)
        )
        (3): Sequential(
          (0): Linear(in_features=128, out_features=1, bias=True)
          (1): BatchNorm1d(1, eps=1e-05, momentum=0.1, affine=False, track_running_stats=True)
        )
      )
    )
    (1): MlpNet(
      (layers): ModuleList(
        (0): Sequential(
          (0): Linear(in_features=3298, out_features=256, bias=True)
          (1): BatchNorm1d(256, eps=1e-05, momentum=0.1, affine=False, track_running_stats=True)
        )
        (1): Sequential(
          (0): Linear(in_features=256, out_features=512, bias=True)
          (1): BatchNorm1d(512, eps=1e-05, momentum=0.1, affine=False, track_running_stats=True)
        )
        (2): Sequential(
          (0): Linear(in_features=512, out_features=128, bias=True)
          (1): BatchNorm1d(128, eps=1e-05, momentum=0.1, affine=False, track_running_stats=True)
        )
        (3): Sequential(
          (0): Linear(in_features=128, out_features=1, bias=True)
          (1): BatchNorm1d(1, eps=1e-05, momentum=0.1, affine=False, track_running_stats=True)
        )
      )
    )
    (2): MlpNet(
      (layers): ModuleList(
        (0): Sequential(
          (0): Linear(in_features=437, out_features=256, bias=True)
          (1): BatchNorm1d(256, eps=1e-05, momentum=0.1, affine=False, track_running_stats=True)
        )
        (1): Sequential(
          (0): Linear(in_features=256, out_features=512, bias=True)
          (1): BatchNorm1d(512, eps=1e-05, momentum=0.1, affine=False, track_running_stats=True)
        )
        (2): Sequential(
          (0): Linear(in_features=512, out_features=128, bias=True)
          (1): BatchNorm1d(128, eps=1e-05, momentum=0.1, affine=False, track_running_stats=True)
        )
        (3): Sequential(
          (0): Linear(in_features=128, out_features=1, bias=True)
          (1): BatchNorm1d(1, eps=1e-05, momentum=0.1, affine=False, track_running_stats=True)
        )
      )
    )
  )
)
[ INFO : 2024-01-05 17:04:58,308 ] - Adam (
Parameter Group 0
    amsgrad: False
    betas: (0.9, 0.999)
    capturable: False
    differentiable: False
    eps: 1e-08
    foreach: None
    fused: None
    initial_lr: 0.05
    lr: 0.05
    maximize: False
    weight_decay: 1e-05
)
[ INFO : 2024-01-05 17:04:58,418 ] - Epoch 1/2 - time: 0.11 - training_loss: -2.6853
[ INFO : 2024-01-05 17:04:58,514 ] - Epoch 2/2 - time: 0.10 - training_loss: -3.8161
[ INFO : 2024-01-05 17:06:05,227 ] - DeepGCCA(
  (model_list): ModuleList(
    (0): MlpNet(
      (layers): ModuleList(
        (0): Sequential(
          (0): Linear(in_features=2642, out_features=256, bias=True)
          (1): BatchNorm1d(256, eps=1e-05, momentum=0.1, affine=False, track_running_stats=True)
        )
        (1): Sequential(
          (0): Linear(in_features=256, out_features=512, bias=True)
          (1): BatchNorm1d(512, eps=1e-05, momentum=0.1, affine=False, track_running_stats=True)
        )
        (2): Sequential(
          (0): Linear(in_features=512, out_features=128, bias=True)
          (1): BatchNorm1d(128, eps=1e-05, momentum=0.1, affine=False, track_running_stats=True)
        )
        (3): Sequential(
          (0): Linear(in_features=128, out_features=1, bias=True)
          (1): BatchNorm1d(1, eps=1e-05, momentum=0.1, affine=False, track_running_stats=True)
        )
      )
    )
    (1): MlpNet(
      (layers): ModuleList(
        (0): Sequential(
          (0): Linear(in_features=3298, out_features=256, bias=True)
          (1): BatchNorm1d(256, eps=1e-05, momentum=0.1, affine=False, track_running_stats=True)
        )
        (1): Sequential(
          (0): Linear(in_features=256, out_features=512, bias=True)
          (1): BatchNorm1d(512, eps=1e-05, momentum=0.1, affine=False, track_running_stats=True)
        )
        (2): Sequential(
          (0): Linear(in_features=512, out_features=128, bias=True)
          (1): BatchNorm1d(128, eps=1e-05, momentum=0.1, affine=False, track_running_stats=True)
        )
        (3): Sequential(
          (0): Linear(in_features=128, out_features=1, bias=True)
          (1): BatchNorm1d(1, eps=1e-05, momentum=0.1, affine=False, track_running_stats=True)
        )
      )
    )
    (2): MlpNet(
      (layers): ModuleList(
        (0): Sequential(
          (0): Linear(in_features=437, out_features=256, bias=True)
          (1): BatchNorm1d(256, eps=1e-05, momentum=0.1, affine=False, track_running_stats=True)
        )
        (1): Sequential(
          (0): Linear(in_features=256, out_features=512, bias=True)
          (1): BatchNorm1d(512, eps=1e-05, momentum=0.1, affine=False, track_running_stats=True)
        )
        (2): Sequential(
          (0): Linear(in_features=512, out_features=128, bias=True)
          (1): BatchNorm1d(128, eps=1e-05, momentum=0.1, affine=False, track_running_stats=True)
        )
        (3): Sequential(
          (0): Linear(in_features=128, out_features=1, bias=True)
          (1): BatchNorm1d(1, eps=1e-05, momentum=0.1, affine=False, track_running_stats=True)
        )
      )
    )
  )
)
[ INFO : 2024-01-05 17:06:05,232 ] - Adam (
Parameter Group 0
    amsgrad: False
    betas: (0.9, 0.999)
    capturable: False
    differentiable: False
    eps: 1e-08
    foreach: None
    fused: None
    initial_lr: 0.05
    lr: 0.05
    maximize: False
    weight_decay: 1e-05
)
[ INFO : 2024-01-05 17:06:05,338 ] - Epoch 1/2 - time: 0.11 - training_loss: -3.4467
[ INFO : 2024-01-05 17:06:05,436 ] - Epoch 2/2 - time: 0.10 - training_loss: -3.9241
[ INFO : 2024-01-05 17:06:24,727 ] - DeepGCCA(
  (model_list): ModuleList(
    (0): MlpNet(
      (layers): ModuleList(
        (0): Sequential(
          (0): Linear(in_features=2642, out_features=256, bias=True)
          (1): BatchNorm1d(256, eps=1e-05, momentum=0.1, affine=False, track_running_stats=True)
        )
        (1): Sequential(
          (0): Linear(in_features=256, out_features=512, bias=True)
          (1): BatchNorm1d(512, eps=1e-05, momentum=0.1, affine=False, track_running_stats=True)
        )
        (2): Sequential(
          (0): Linear(in_features=512, out_features=128, bias=True)
          (1): BatchNorm1d(128, eps=1e-05, momentum=0.1, affine=False, track_running_stats=True)
        )
        (3): Sequential(
          (0): Linear(in_features=128, out_features=1, bias=True)
          (1): BatchNorm1d(1, eps=1e-05, momentum=0.1, affine=False, track_running_stats=True)
        )
      )
    )
    (1): MlpNet(
      (layers): ModuleList(
        (0): Sequential(
          (0): Linear(in_features=3298, out_features=256, bias=True)
          (1): BatchNorm1d(256, eps=1e-05, momentum=0.1, affine=False, track_running_stats=True)
        )
        (1): Sequential(
          (0): Linear(in_features=256, out_features=512, bias=True)
          (1): BatchNorm1d(512, eps=1e-05, momentum=0.1, affine=False, track_running_stats=True)
        )
        (2): Sequential(
          (0): Linear(in_features=512, out_features=128, bias=True)
          (1): BatchNorm1d(128, eps=1e-05, momentum=0.1, affine=False, track_running_stats=True)
        )
        (3): Sequential(
          (0): Linear(in_features=128, out_features=1, bias=True)
          (1): BatchNorm1d(1, eps=1e-05, momentum=0.1, affine=False, track_running_stats=True)
        )
      )
    )
    (2): MlpNet(
      (layers): ModuleList(
        (0): Sequential(
          (0): Linear(in_features=437, out_features=256, bias=True)
          (1): BatchNorm1d(256, eps=1e-05, momentum=0.1, affine=False, track_running_stats=True)
        )
        (1): Sequential(
          (0): Linear(in_features=256, out_features=512, bias=True)
          (1): BatchNorm1d(512, eps=1e-05, momentum=0.1, affine=False, track_running_stats=True)
        )
        (2): Sequential(
          (0): Linear(in_features=512, out_features=128, bias=True)
          (1): BatchNorm1d(128, eps=1e-05, momentum=0.1, affine=False, track_running_stats=True)
        )
        (3): Sequential(
          (0): Linear(in_features=128, out_features=1, bias=True)
          (1): BatchNorm1d(1, eps=1e-05, momentum=0.1, affine=False, track_running_stats=True)
        )
      )
    )
  )
)
[ INFO : 2024-01-05 17:06:24,731 ] - Adam (
Parameter Group 0
    amsgrad: False
    betas: (0.9, 0.999)
    capturable: False
    differentiable: False
    eps: 1e-08
    foreach: None
    fused: None
    initial_lr: 0.05
    lr: 0.05
    maximize: False
    weight_decay: 1e-05
)
[ INFO : 2024-01-05 17:06:24,843 ] - Epoch 1/2 - time: 0.11 - training_loss: -2.7872
[ INFO : 2024-01-05 17:06:24,941 ] - Epoch 2/2 - time: 0.10 - training_loss: -2.5094
[ INFO : 2024-01-05 17:07:33,339 ] - DeepGCCA(
  (model_list): ModuleList(
    (0): MlpNet(
      (layers): ModuleList(
        (0): Sequential(
          (0): Linear(in_features=2642, out_features=256, bias=True)
          (1): BatchNorm1d(256, eps=1e-05, momentum=0.1, affine=False, track_running_stats=True)
        )
        (1): Sequential(
          (0): Linear(in_features=256, out_features=512, bias=True)
          (1): BatchNorm1d(512, eps=1e-05, momentum=0.1, affine=False, track_running_stats=True)
        )
        (2): Sequential(
          (0): Linear(in_features=512, out_features=128, bias=True)
          (1): BatchNorm1d(128, eps=1e-05, momentum=0.1, affine=False, track_running_stats=True)
        )
        (3): Sequential(
          (0): Linear(in_features=128, out_features=1, bias=True)
          (1): BatchNorm1d(1, eps=1e-05, momentum=0.1, affine=False, track_running_stats=True)
        )
      )
    )
    (1): MlpNet(
      (layers): ModuleList(
        (0): Sequential(
          (0): Linear(in_features=3298, out_features=256, bias=True)
          (1): BatchNorm1d(256, eps=1e-05, momentum=0.1, affine=False, track_running_stats=True)
        )
        (1): Sequential(
          (0): Linear(in_features=256, out_features=512, bias=True)
          (1): BatchNorm1d(512, eps=1e-05, momentum=0.1, affine=False, track_running_stats=True)
        )
        (2): Sequential(
          (0): Linear(in_features=512, out_features=128, bias=True)
          (1): BatchNorm1d(128, eps=1e-05, momentum=0.1, affine=False, track_running_stats=True)
        )
        (3): Sequential(
          (0): Linear(in_features=128, out_features=1, bias=True)
          (1): BatchNorm1d(1, eps=1e-05, momentum=0.1, affine=False, track_running_stats=True)
        )
      )
    )
    (2): MlpNet(
      (layers): ModuleList(
        (0): Sequential(
          (0): Linear(in_features=437, out_features=256, bias=True)
          (1): BatchNorm1d(256, eps=1e-05, momentum=0.1, affine=False, track_running_stats=True)
        )
        (1): Sequential(
          (0): Linear(in_features=256, out_features=512, bias=True)
          (1): BatchNorm1d(512, eps=1e-05, momentum=0.1, affine=False, track_running_stats=True)
        )
        (2): Sequential(
          (0): Linear(in_features=512, out_features=128, bias=True)
          (1): BatchNorm1d(128, eps=1e-05, momentum=0.1, affine=False, track_running_stats=True)
        )
        (3): Sequential(
          (0): Linear(in_features=128, out_features=1, bias=True)
          (1): BatchNorm1d(1, eps=1e-05, momentum=0.1, affine=False, track_running_stats=True)
        )
      )
    )
  )
)
[ INFO : 2024-01-05 17:07:33,343 ] - Adam (
Parameter Group 0
    amsgrad: False
    betas: (0.9, 0.999)
    capturable: False
    differentiable: False
    eps: 1e-08
    foreach: None
    fused: None
    initial_lr: 0.05
    lr: 0.05
    maximize: False
    weight_decay: 1e-05
)
[ INFO : 2024-01-05 17:07:33,455 ] - Epoch 1/2 - time: 0.11 - training_loss: -2.6506
[ INFO : 2024-01-05 17:07:33,556 ] - Epoch 2/2 - time: 0.10 - training_loss: -3.7071
[ INFO : 2024-01-05 17:09:01,645 ] - DeepGCCA(
  (model_list): ModuleList(
    (0): MlpNet(
      (layers): ModuleList(
        (0): Sequential(
          (0): Linear(in_features=2642, out_features=256, bias=True)
          (1): BatchNorm1d(256, eps=1e-05, momentum=0.1, affine=False, track_running_stats=True)
        )
        (1): Sequential(
          (0): Linear(in_features=256, out_features=512, bias=True)
          (1): BatchNorm1d(512, eps=1e-05, momentum=0.1, affine=False, track_running_stats=True)
        )
        (2): Sequential(
          (0): Linear(in_features=512, out_features=128, bias=True)
          (1): BatchNorm1d(128, eps=1e-05, momentum=0.1, affine=False, track_running_stats=True)
        )
        (3): Sequential(
          (0): Linear(in_features=128, out_features=1, bias=True)
          (1): BatchNorm1d(1, eps=1e-05, momentum=0.1, affine=False, track_running_stats=True)
        )
      )
    )
    (1): MlpNet(
      (layers): ModuleList(
        (0): Sequential(
          (0): Linear(in_features=3298, out_features=256, bias=True)
          (1): BatchNorm1d(256, eps=1e-05, momentum=0.1, affine=False, track_running_stats=True)
        )
        (1): Sequential(
          (0): Linear(in_features=256, out_features=512, bias=True)
          (1): BatchNorm1d(512, eps=1e-05, momentum=0.1, affine=False, track_running_stats=True)
        )
        (2): Sequential(
          (0): Linear(in_features=512, out_features=128, bias=True)
          (1): BatchNorm1d(128, eps=1e-05, momentum=0.1, affine=False, track_running_stats=True)
        )
        (3): Sequential(
          (0): Linear(in_features=128, out_features=1, bias=True)
          (1): BatchNorm1d(1, eps=1e-05, momentum=0.1, affine=False, track_running_stats=True)
        )
      )
    )
    (2): MlpNet(
      (layers): ModuleList(
        (0): Sequential(
          (0): Linear(in_features=437, out_features=256, bias=True)
          (1): BatchNorm1d(256, eps=1e-05, momentum=0.1, affine=False, track_running_stats=True)
        )
        (1): Sequential(
          (0): Linear(in_features=256, out_features=512, bias=True)
          (1): BatchNorm1d(512, eps=1e-05, momentum=0.1, affine=False, track_running_stats=True)
        )
        (2): Sequential(
          (0): Linear(in_features=512, out_features=128, bias=True)
          (1): BatchNorm1d(128, eps=1e-05, momentum=0.1, affine=False, track_running_stats=True)
        )
        (3): Sequential(
          (0): Linear(in_features=128, out_features=1, bias=True)
          (1): BatchNorm1d(1, eps=1e-05, momentum=0.1, affine=False, track_running_stats=True)
        )
      )
    )
  )
)
[ INFO : 2024-01-05 17:09:01,649 ] - Adam (
Parameter Group 0
    amsgrad: False
    betas: (0.9, 0.999)
    capturable: False
    differentiable: False
    eps: 1e-08
    foreach: None
    fused: None
    initial_lr: 0.05
    lr: 0.05
    maximize: False
    weight_decay: 1e-05
)
[ INFO : 2024-01-05 17:09:01,757 ] - Epoch 1/2 - time: 0.11 - training_loss: -2.6720
[ INFO : 2024-01-05 17:09:01,853 ] - Epoch 2/2 - time: 0.10 - training_loss: -2.6297
[ INFO : 2024-01-05 17:10:00,682 ] - DeepGCCA(
  (model_list): ModuleList(
    (0): MlpNet(
      (layers): ModuleList(
        (0): Sequential(
          (0): Linear(in_features=2642, out_features=256, bias=True)
          (1): BatchNorm1d(256, eps=1e-05, momentum=0.1, affine=False, track_running_stats=True)
        )
        (1): Sequential(
          (0): Linear(in_features=256, out_features=512, bias=True)
          (1): BatchNorm1d(512, eps=1e-05, momentum=0.1, affine=False, track_running_stats=True)
        )
        (2): Sequential(
          (0): Linear(in_features=512, out_features=128, bias=True)
          (1): BatchNorm1d(128, eps=1e-05, momentum=0.1, affine=False, track_running_stats=True)
        )
        (3): Sequential(
          (0): Linear(in_features=128, out_features=1, bias=True)
          (1): BatchNorm1d(1, eps=1e-05, momentum=0.1, affine=False, track_running_stats=True)
        )
      )
    )
    (1): MlpNet(
      (layers): ModuleList(
        (0): Sequential(
          (0): Linear(in_features=3298, out_features=256, bias=True)
          (1): BatchNorm1d(256, eps=1e-05, momentum=0.1, affine=False, track_running_stats=True)
        )
        (1): Sequential(
          (0): Linear(in_features=256, out_features=512, bias=True)
          (1): BatchNorm1d(512, eps=1e-05, momentum=0.1, affine=False, track_running_stats=True)
        )
        (2): Sequential(
          (0): Linear(in_features=512, out_features=128, bias=True)
          (1): BatchNorm1d(128, eps=1e-05, momentum=0.1, affine=False, track_running_stats=True)
        )
        (3): Sequential(
          (0): Linear(in_features=128, out_features=1, bias=True)
          (1): BatchNorm1d(1, eps=1e-05, momentum=0.1, affine=False, track_running_stats=True)
        )
      )
    )
    (2): MlpNet(
      (layers): ModuleList(
        (0): Sequential(
          (0): Linear(in_features=437, out_features=256, bias=True)
          (1): BatchNorm1d(256, eps=1e-05, momentum=0.1, affine=False, track_running_stats=True)
        )
        (1): Sequential(
          (0): Linear(in_features=256, out_features=512, bias=True)
          (1): BatchNorm1d(512, eps=1e-05, momentum=0.1, affine=False, track_running_stats=True)
        )
        (2): Sequential(
          (0): Linear(in_features=512, out_features=128, bias=True)
          (1): BatchNorm1d(128, eps=1e-05, momentum=0.1, affine=False, track_running_stats=True)
        )
        (3): Sequential(
          (0): Linear(in_features=128, out_features=1, bias=True)
          (1): BatchNorm1d(1, eps=1e-05, momentum=0.1, affine=False, track_running_stats=True)
        )
      )
    )
  )
)
[ INFO : 2024-01-05 17:10:00,686 ] - Adam (
Parameter Group 0
    amsgrad: False
    betas: (0.9, 0.999)
    capturable: False
    differentiable: False
    eps: 1e-08
    foreach: None
    fused: None
    initial_lr: 0.05
    lr: 0.05
    maximize: False
    weight_decay: 1e-05
)
[ INFO : 2024-01-05 17:10:00,791 ] - Epoch 1/2 - time: 0.10 - training_loss: -3.2039
[ INFO : 2024-01-05 17:10:00,887 ] - Epoch 2/2 - time: 0.10 - training_loss: -3.2631
[ INFO : 2024-01-18 15:29:17,869 ] - DeepGCCA(
  (model_list): ModuleList(
    (0-2): 3 x MlpNet(
      (layers): ModuleList(
        (0): Sequential(
          (0): Linear(in_features=100, out_features=256, bias=True)
          (1): BatchNorm1d(256, eps=1e-05, momentum=0.1, affine=False, track_running_stats=True)
        )
        (1): Sequential(
          (0): Linear(in_features=256, out_features=512, bias=True)
          (1): BatchNorm1d(512, eps=1e-05, momentum=0.1, affine=False, track_running_stats=True)
        )
        (2): Sequential(
          (0): Linear(in_features=512, out_features=128, bias=True)
          (1): BatchNorm1d(128, eps=1e-05, momentum=0.1, affine=False, track_running_stats=True)
        )
        (3): Sequential(
          (0): Linear(in_features=128, out_features=1, bias=True)
          (1): BatchNorm1d(1, eps=1e-05, momentum=0.1, affine=False, track_running_stats=True)
        )
      )
    )
  )
)
[ INFO : 2024-01-18 15:29:17,872 ] - Adam (
Parameter Group 0
    amsgrad: False
    betas: (0.9, 0.999)
    capturable: False
    differentiable: False
    eps: 1e-08
    foreach: None
    fused: None
    initial_lr: 0.05
    lr: 0.05
    maximize: False
    weight_decay: 1e-05
)
[ INFO : 2024-01-18 15:29:17,946 ] - Epoch 1/2 - time: 0.07 - training_loss: -2.5543
[ INFO : 2024-01-18 15:29:17,975 ] - Epoch 2/2 - time: 0.03 - training_loss: -2.3551
[ INFO : 2024-01-18 15:29:18,046 ] - DeepGCCA(
  (model_list): ModuleList(
    (0-2): 3 x MlpNet(
      (layers): ModuleList(
        (0): Sequential(
          (0): Linear(in_features=100, out_features=256, bias=True)
          (1): BatchNorm1d(256, eps=1e-05, momentum=0.1, affine=False, track_running_stats=True)
        )
        (1): Sequential(
          (0): Linear(in_features=256, out_features=512, bias=True)
          (1): BatchNorm1d(512, eps=1e-05, momentum=0.1, affine=False, track_running_stats=True)
        )
        (2): Sequential(
          (0): Linear(in_features=512, out_features=128, bias=True)
          (1): BatchNorm1d(128, eps=1e-05, momentum=0.1, affine=False, track_running_stats=True)
        )
        (3): Sequential(
          (0): Linear(in_features=128, out_features=1, bias=True)
          (1): BatchNorm1d(1, eps=1e-05, momentum=0.1, affine=False, track_running_stats=True)
        )
      )
    )
  )
)
[ INFO : 2024-01-18 15:29:18,046 ] - DeepGCCA(
  (model_list): ModuleList(
    (0-2): 3 x MlpNet(
      (layers): ModuleList(
        (0): Sequential(
          (0): Linear(in_features=100, out_features=256, bias=True)
          (1): BatchNorm1d(256, eps=1e-05, momentum=0.1, affine=False, track_running_stats=True)
        )
        (1): Sequential(
          (0): Linear(in_features=256, out_features=512, bias=True)
          (1): BatchNorm1d(512, eps=1e-05, momentum=0.1, affine=False, track_running_stats=True)
        )
        (2): Sequential(
          (0): Linear(in_features=512, out_features=128, bias=True)
          (1): BatchNorm1d(128, eps=1e-05, momentum=0.1, affine=False, track_running_stats=True)
        )
        (3): Sequential(
          (0): Linear(in_features=128, out_features=1, bias=True)
          (1): BatchNorm1d(1, eps=1e-05, momentum=0.1, affine=False, track_running_stats=True)
        )
      )
    )
  )
)
[ INFO : 2024-01-18 15:29:18,050 ] - Adam (
Parameter Group 0
    amsgrad: False
    betas: (0.9, 0.999)
    capturable: False
    differentiable: False
    eps: 1e-08
    foreach: None
    fused: None
    initial_lr: 0.05
    lr: 0.05
    maximize: False
    weight_decay: 1e-05
)
[ INFO : 2024-01-18 15:29:18,050 ] - Adam (
…
    foreach: None
    fused: None
    initial_lr: 0.05
    lr: 0.05
    maximize: False
    weight_decay: 1e-05
)
[ INFO : 2024-01-18 15:29:18,090 ] - Epoch 1/2 - time: 0.04 - training_loss: -2.5393
[ INFO : 2024-01-18 15:29:18,090 ] - Epoch 1/2 - time: 0.04 - training_loss: -2.5393
[ INFO : 2024-01-18 15:29:18,122 ] - Epoch 2/2 - time: 0.03 - training_loss: -2.3807
[ INFO : 2024-01-18 15:29:18,122 ] - Epoch 2/2 - time: 0.03 - training_loss: -2.3807
[ INFO : 2024-01-18 15:29:18,155 ] - DeepGCCA(
  (model_list): ModuleList(
    (0-2): 3 x MlpNet(
      (layers): ModuleList(
        (0): Sequential(
          (0): Linear(in_features=100, out_features=256, bias=True)
          (1): BatchNorm1d(256, eps=1e-05, momentum=0.1, affine=False, track_running_stats=True)
        )
        (1): Sequential(
          (0): Linear(in_features=256, out_features=512, bias=True)
          (1): BatchNorm1d(512, eps=1e-05, momentum=0.1, affine=False, track_running_stats=True)
        )
        (2): Sequential(
          (0): Linear(in_features=512, out_features=128, bias=True)
          (1): BatchNorm1d(128, eps=1e-05, momentum=0.1, affine=False, track_running_stats=True)
        )
        (3): Sequential(
          (0): Linear(in_features=128, out_features=1, bias=True)
          (1): BatchNorm1d(1, eps=1e-05, momentum=0.1, affine=False, track_running_stats=True)
        )
      )
    )
  )
)
[ INFO : 2024-01-18 15:29:18,155 ] - DeepGCCA(
  (model_list): ModuleList(
    (0-2): 3 x MlpNet(
      (layers): ModuleList(
        (0): Sequential(
          (0): Linear(in_features=100, out_features=256, bias=True)
          (1): BatchNorm1d(256, eps=1e-05, momentum=0.1, affine=False, track_running_stats=True)
        )
        (1): Sequential(
          (0): Linear(in_features=256, out_features=512, bias=True)
          (1): BatchNorm1d(512, eps=1e-05, momentum=0.1, affine=False, track_running_stats=True)
        )
        (2): Sequential(
          (0): Linear(in_features=512, out_features=128, bias=True)
          (1): BatchNorm1d(128, eps=1e-05, momentum=0.1, affine=False, track_running_stats=True)
        )
        (3): Sequential(
          (0): Linear(in_features=128, out_features=1, bias=True)
          (1): BatchNorm1d(1, eps=1e-05, momentum=0.1, affine=False, track_running_stats=True)
        )
      )
    )
  )
)
[ INFO : 2024-01-18 15:29:18,155 ] - DeepGCCA(
  (model_list): ModuleList(
    (0-2): 3 x MlpNet(
      (layers): ModuleList(
        (0): Sequential(
          (0): Linear(in_features=100, out_features=256, bias=True)
          (1): BatchNorm1d(256, eps=1e-05, momentum=0.1, affine=False, track_running_stats=True)
        )
        (1): Sequential(
          (0): Linear(in_features=256, out_features=512, bias=True)
          (1): BatchNorm1d(512, eps=1e-05, momentum=0.1, affine=False, track_running_stats=True)
        )
        (2): Sequential(
          (0): Linear(in_features=512, out_features=128, bias=True)
          (1): BatchNorm1d(128, eps=1e-05, momentum=0.1, affine=False, track_running_stats=True)
        )
        (3): Sequential(
          (0): Linear(in_features=128, out_features=1, bias=True)
          (1): BatchNorm1d(1, eps=1e-05, momentum=0.1, affine=False, track_running_stats=True)
        )
      )
    )
  )
)
[ INFO : 2024-01-18 15:29:18,158 ] - Adam (
Parameter Group 0
    amsgrad: False
    betas: (0.9, 0.999)
    capturable: False
    differentiable: False
    eps: 1e-08
    foreach: None
    fused: None
    initial_lr: 0.05
    lr: 0.05
    maximize: False
    weight_decay: 1e-05
)
[ INFO : 2024-01-18 15:29:18,158 ] - Adam (
…
[ INFO : 2024-01-18 15:29:18,192 ] - Epoch 1/2 - time: 0.03 - training_loss: -2.8587
[ INFO : 2024-01-18 15:29:18,192 ] - Epoch 1/2 - time: 0.03 - training_loss: -2.8587
[ INFO : 2024-01-18 15:29:18,192 ] - Epoch 1/2 - time: 0.03 - training_loss: -2.8587
[ INFO : 2024-01-18 15:29:18,221 ] - Epoch 2/2 - time: 0.03 - training_loss: -2.6474
[ INFO : 2024-01-18 15:29:18,221 ] - Epoch 2/2 - time: 0.03 - training_loss: -2.6474
[ INFO : 2024-01-18 15:29:18,221 ] - Epoch 2/2 - time: 0.03 - training_loss: -2.6474
[ INFO : 2024-01-18 15:29:18,253 ] - DeepGCCA(
  (model_list): ModuleList(
    (0-2): 3 x MlpNet(
      (layers): ModuleList(
        (0): Sequential(
          (0): Linear(in_features=100, out_features=256, bias=True)
          (1): BatchNorm1d(256, eps=1e-05, momentum=0.1, affine=False, track_running_stats=True)
        )
        (1): Sequential(
          (0): Linear(in_features=256, out_features=512, bias=True)
          (1): BatchNorm1d(512, eps=1e-05, momentum=0.1, affine=False, track_running_stats=True)
        )
        (2): Sequential(
          (0): Linear(in_features=512, out_features=128, bias=True)
          (1): BatchNorm1d(128, eps=1e-05, momentum=0.1, affine=False, track_running_stats=True)
        )
        (3): Sequential(
          (0): Linear(in_features=128, out_features=1, bias=True)
          (1): BatchNorm1d(1, eps=1e-05, momentum=0.1, affine=False, track_running_stats=True)
        )
      )
    )
  )
)
[ INFO : 2024-01-18 15:29:18,253 ] - DeepGCCA(
  (model_list): ModuleList(
    (0-2): 3 x MlpNet(
      (layers): ModuleList(
        (0): Sequential(
          (0): Linear(in_features=100, out_features=256, bias=True)
          (1): BatchNorm1d(256, eps=1e-05, momentum=0.1, affine=False, track_running_stats=True)
        )
        (1): Sequential(
          (0): Linear(in_features=256, out_features=512, bias=True)
          (1): BatchNorm1d(512, eps=1e-05, momentum=0.1, affine=False, track_running_stats=True)
        )
        (2): Sequential(
          (0): Linear(in_features=512, out_features=128, bias=True)
          (1): BatchNorm1d(128, eps=1e-05, momentum=0.1, affine=False, track_running_stats=True)
        )
        (3): Sequential(
          (0): Linear(in_features=128, out_features=1, bias=True)
          (1): BatchNorm1d(1, eps=1e-05, momentum=0.1, affine=False, track_running_stats=True)
        )
      )
    )
  )
)
[ INFO : 2024-01-18 15:29:18,253 ] - DeepGCCA(
  (model_list): ModuleList(
    (0-2): 3 x MlpNet(
      (layers): ModuleList(
        (0): Sequential(
          (0): Linear(in_features=100, out_features=256, bias=True)
          (1): BatchNorm1d(256, eps=1e-05, momentum=0.1, affine=False, track_running_stats=True)
        )
        (1): Sequential(
          (0): Linear(in_features=256, out_features=512, bias=True)
          (1): BatchNorm1d(512, eps=1e-05, momentum=0.1, affine=False, track_running_stats=True)
        )
        (2): Sequential(
          (0): Linear(in_features=512, out_features=128, bias=True)
          (1): BatchNorm1d(128, eps=1e-05, momentum=0.1, affine=False, track_running_stats=True)
        )
        (3): Sequential(
          (0): Linear(in_features=128, out_features=1, bias=True)
          (1): BatchNorm1d(1, eps=1e-05, momentum=0.1, affine=False, track_running_stats=True)
        )
      )
    )
  )
)
[ INFO : 2024-01-18 15:29:18,253 ] - DeepGCCA(
  (model_list): ModuleList(
    (0-2): 3 x MlpNet(
      (layers): ModuleList(
        (0): Sequential(
          (0): Linear(in_features=100, out_features=256, bias=True)
          (1): BatchNorm1d(256, eps=1e-05, momentum=0.1, affine=False, track_running_stats=True)
        )
        (1): Sequential(
          (0): Linear(in_features=256, out_features=512, bias=True)
          (1): BatchNorm1d(512, eps=1e-05, momentum=0.1, affine=False, track_running_stats=True)
        )
        (2): Sequential(
          (0): Linear(in_features=512, out_features=128, bias=True)
          (1): BatchNorm1d(128, eps=1e-05, momentum=0.1, affine=False, track_running_stats=True)
        )
        (3): Sequential(
          (0): Linear(in_features=128, out_features=1, bias=True)
          (1): BatchNorm1d(1, eps=1e-05, momentum=0.1, affine=False, track_running_stats=True)
        )
      )
    )
  )
)
[ INFO : 2024-01-18 15:29:18,256 ] - Adam (
Parameter Group 0
    amsgrad: False
    betas: (0.9, 0.999)
    capturable: False
    differentiable: False
    eps: 1e-08
    foreach: None
    fused: None
    initial_lr: 0.05
    lr: 0.05
    maximize: False
    weight_decay: 1e-05
)
[ INFO : 2024-01-18 15:29:18,256 ] - Adam (
…
[ INFO : 2024-01-18 15:29:18,291 ] - Epoch 1/2 - time: 0.03 - training_loss: -2.6218
[ INFO : 2024-01-18 15:29:18,291 ] - Epoch 1/2 - time: 0.03 - training_loss: -2.6218
[ INFO : 2024-01-18 15:29:18,327 ] - Epoch 2/2 - time: 0.04 - training_loss: -2.8591
[ INFO : 2024-01-18 15:29:18,327 ] - Epoch 2/2 - time: 0.04 - training_loss: -2.8591
[ INFO : 2024-01-18 15:29:18,327 ] - Epoch 2/2 - time: 0.04 - training_loss: -2.8591
[ INFO : 2024-01-18 15:29:18,327 ] - Epoch 2/2 - time: 0.04 - training_loss: -2.8591
[ INFO : 2024-01-18 15:29:18,366 ] - DeepGCCA(
  (model_list): ModuleList(
    (0-2): 3 x MlpNet(
      (layers): ModuleList(
        (0): Sequential(
          (0): Linear(in_features=100, out_features=256, bias=True)
          (1): BatchNorm1d(256, eps=1e-05, momentum=0.1, affine=False, track_running_stats=True)
        )
        (1): Sequential(
          (0): Linear(in_features=256, out_features=512, bias=True)
          (1): BatchNorm1d(512, eps=1e-05, momentum=0.1, affine=False, track_running_stats=True)
        )
        (2): Sequential(
          (0): Linear(in_features=512, out_features=128, bias=True)
          (1): BatchNorm1d(128, eps=1e-05, momentum=0.1, affine=False, track_running_stats=True)
        )
        (3): Sequential(
          (0): Linear(in_features=128, out_features=1, bias=True)
          (1): BatchNorm1d(1, eps=1e-05, momentum=0.1, affine=False, track_running_stats=True)
        )
      )
    )
  )
)
[ INFO : 2024-01-18 15:29:18,366 ] - DeepGCCA(
  (model_list): ModuleList(
    (0-2): 3 x MlpNet(
      (layers): ModuleList(
        (0): Sequential(
          (0): Linear(in_features=100, out_features=256, bias=True)
          (1): BatchNorm1d(256, eps=1e-05, momentum=0.1, affine=False, track_running_stats=True)
        )
        (1): Sequential(
          (0): Linear(in_features=256, out_features=512, bias=True)
          (1): BatchNorm1d(512, eps=1e-05, momentum=0.1, affine=False, track_running_stats=True)
        )
        (2): Sequential(
          (0): Linear(in_features=512, out_features=128, bias=True)
          (1): BatchNorm1d(128, eps=1e-05, momentum=0.1, affine=False, track_running_stats=True)
        )
        (3): Sequential(
          (0): Linear(in_features=128, out_features=1, bias=True)
          (1): BatchNorm1d(1, eps=1e-05, momentum=0.1, affine=False, track_running_stats=True)
        )
      )
    )
  )
)
[ INFO : 2024-01-18 15:29:18,366 ] - DeepGCCA(
  (model_list): ModuleList(
    (0-2): 3 x MlpNet(
      (layers): ModuleList(
        (0): Sequential(
          (0): Linear(in_features=100, out_features=256, bias=True)
          (1): BatchNorm1d(256, eps=1e-05, momentum=0.1, affine=False, track_running_stats=True)
        )
        (1): Sequential(
          (0): Linear(in_features=256, out_features=512, bias=True)
          (1): BatchNorm1d(512, eps=1e-05, momentum=0.1, affine=False, track_running_stats=True)
        )
        (2): Sequential(
          (0): Linear(in_features=512, out_features=128, bias=True)
          (1): BatchNorm1d(128, eps=1e-05, momentum=0.1, affine=False, track_running_stats=True)
        )
        (3): Sequential(
          (0): Linear(in_features=128, out_features=1, bias=True)
          (1): BatchNorm1d(1, eps=1e-05, momentum=0.1, affine=False, track_running_stats=True)
        )
      )
    )
  )
)
[ INFO : 2024-01-18 15:29:18,366 ] - DeepGCCA(
  (model_list): ModuleList(
    (0-2): 3 x MlpNet(
      (layers): ModuleList(
        (0): Sequential(
          (0): Linear(in_features=100, out_features=256, bias=True)
          (1): BatchNorm1d(256, eps=1e-05, momentum=0.1, affine=False, track_running_stats=True)
        )
        (1): Sequential(
          (0): Linear(in_features=256, out_features=512, bias=True)
          (1): BatchNorm1d(512, eps=1e-05, momentum=0.1, affine=False, track_running_stats=True)
        )
        (2): Sequential(
          (0): Linear(in_features=512, out_features=128, bias=True)
          (1): BatchNorm1d(128, eps=1e-05, momentum=0.1, affine=False, track_running_stats=True)
        )
        (3): Sequential(
          (0): Linear(in_features=128, out_features=1, bias=True)
          (1): BatchNorm1d(1, eps=1e-05, momentum=0.1, affine=False, track_running_stats=True)
        )
      )
    )
  )
)
[ INFO : 2024-01-18 15:29:18,366 ] - DeepGCCA(
  (model_list): ModuleList(
    (0-2): 3 x MlpNet(
      (layers): ModuleList(
        (0): Sequential(
          (0): Linear(in_features=100, out_features=256, bias=True)
          (1): BatchNorm1d(256, eps=1e-05, momentum=0.1, affine=False, track_running_stats=True)
        )
        (1): Sequential(
          (0): Linear(in_features=256, out_features=512, bias=True)
          (1): BatchNorm1d(512, eps=1e-05, momentum=0.1, affine=False, track_running_stats=True)
        )
        (2): Sequential(
          (0): Linear(in_features=512, out_features=128, bias=True)
          (1): BatchNorm1d(128, eps=1e-05, momentum=0.1, affine=False, track_running_stats=True)
        )
        (3): Sequential(
          (0): Linear(in_features=128, out_features=1, bias=True)
          (1): BatchNorm1d(1, eps=1e-05, momentum=0.1, affine=False, track_running_stats=True)
        )
      )
    )
  )
)
[ INFO : 2024-01-18 15:29:18,369 ] - Adam (
Parameter Group 0
    amsgrad: False
    betas: (0.9, 0.999)
    capturable: False
    differentiable: False
    eps: 1e-08
    foreach: None
    fused: None
    initial_lr: 0.05
    lr: 0.05
    maximize: False
    weight_decay: 1e-05
)
[ INFO : 2024-01-18 15:29:18,369 ] - Adam (
…
[ INFO : 2024-01-18 15:29:18,405 ] - Epoch 1/2 - time: 0.03 - training_loss: -2.3345
[ INFO : 2024-01-18 15:29:18,435 ] - Epoch 2/2 - time: 0.03 - training_loss: -2.2503
[ INFO : 2024-01-18 15:29:18,435 ] - Epoch 2/2 - time: 0.03 - training_loss: -2.2503
[ INFO : 2024-01-18 15:29:18,435 ] - Epoch 2/2 - time: 0.03 - training_loss: -2.2503
[ INFO : 2024-01-18 15:29:18,435 ] - Epoch 2/2 - time: 0.03 - training_loss: -2.2503
[ INFO : 2024-01-18 15:29:18,435 ] - Epoch 2/2 - time: 0.03 - training_loss: -2.2503
[ INFO : 2024-01-18 15:29:18,469 ] - DeepGCCA(
  (model_list): ModuleList(
    (0-2): 3 x MlpNet(
      (layers): ModuleList(
        (0): Sequential(
          (0): Linear(in_features=100, out_features=256, bias=True)
          (1): BatchNorm1d(256, eps=1e-05, momentum=0.1, affine=False, track_running_stats=True)
        )
        (1): Sequential(
          (0): Linear(in_features=256, out_features=512, bias=True)
          (1): BatchNorm1d(512, eps=1e-05, momentum=0.1, affine=False, track_running_stats=True)
        )
        (2): Sequential(
          (0): Linear(in_features=512, out_features=128, bias=True)
          (1): BatchNorm1d(128, eps=1e-05, momentum=0.1, affine=False, track_running_stats=True)
        )
        (3): Sequential(
          (0): Linear(in_features=128, out_features=1, bias=True)
          (1): BatchNorm1d(1, eps=1e-05, momentum=0.1, affine=False, track_running_stats=True)
        )
      )
    )
  )
)
[ INFO : 2024-01-18 15:29:18,469 ] - DeepGCCA(
  (model_list): ModuleList(
    (0-2): 3 x MlpNet(
      (layers): ModuleList(
        (0): Sequential(
          (0): Linear(in_features=100, out_features=256, bias=True)
          (1): BatchNorm1d(256, eps=1e-05, momentum=0.1, affine=False, track_running_stats=True)
        )
        (1): Sequential(
          (0): Linear(in_features=256, out_features=512, bias=True)
          (1): BatchNorm1d(512, eps=1e-05, momentum=0.1, affine=False, track_running_stats=True)
        )
        (2): Sequential(
          (0): Linear(in_features=512, out_features=128, bias=True)
          (1): BatchNorm1d(128, eps=1e-05, momentum=0.1, affine=False, track_running_stats=True)
        )
        (3): Sequential(
          (0): Linear(in_features=128, out_features=1, bias=True)
          (1): BatchNorm1d(1, eps=1e-05, momentum=0.1, affine=False, track_running_stats=True)
        )
      )
    )
  )
)
[ INFO : 2024-01-18 15:29:18,469 ] - DeepGCCA(
  (model_list): ModuleList(
    (0-2): 3 x MlpNet(
      (layers): ModuleList(
        (0): Sequential(
          (0): Linear(in_features=100, out_features=256, bias=True)
          (1): BatchNorm1d(256, eps=1e-05, momentum=0.1, affine=False, track_running_stats=True)
        )
        (1): Sequential(
          (0): Linear(in_features=256, out_features=512, bias=True)
          (1): BatchNorm1d(512, eps=1e-05, momentum=0.1, affine=False, track_running_stats=True)
        )
        (2): Sequential(
          (0): Linear(in_features=512, out_features=128, bias=True)
          (1): BatchNorm1d(128, eps=1e-05, momentum=0.1, affine=False, track_running_stats=True)
        )
        (3): Sequential(
          (0): Linear(in_features=128, out_features=1, bias=True)
          (1): BatchNorm1d(1, eps=1e-05, momentum=0.1, affine=False, track_running_stats=True)
        )
      )
    )
  )
)
[ INFO : 2024-01-18 15:29:18,469 ] - DeepGCCA(
  (model_list): ModuleList(
    (0-2): 3 x MlpNet(
      (layers): ModuleList(
        (0): Sequential(
          (0): Linear(in_features=100, out_features=256, bias=True)
          (1): BatchNorm1d(256, eps=1e-05, momentum=0.1, affine=False, track_running_stats=True)
        )
        (1): Sequential(
          (0): Linear(in_features=256, out_features=512, bias=True)
          (1): BatchNorm1d(512, eps=1e-05, momentum=0.1, affine=False, track_running_stats=True)
        )
        (2): Sequential(
          (0): Linear(in_features=512, out_features=128, bias=True)
          (1): BatchNorm1d(128, eps=1e-05, momentum=0.1, affine=False, track_running_stats=True)
        )
        (3): Sequential(
          (0): Linear(in_features=128, out_features=1, bias=True)
          (1): BatchNorm1d(1, eps=1e-05, momentum=0.1, affine=False, track_running_stats=True)
        )
      )
    )
  )
)
[ INFO : 2024-01-18 15:29:18,469 ] - DeepGCCA(
  (model_list): ModuleList(
    (0-2): 3 x MlpNet(
      (layers): ModuleList(
        (0): Sequential(
          (0): Linear(in_features=100, out_features=256, bias=True)
          (1): BatchNorm1d(256, eps=1e-05, momentum=0.1, affine=False, track_running_stats=True)
        )
        (1): Sequential(
          (0): Linear(in_features=256, out_features=512, bias=True)
          (1): BatchNorm1d(512, eps=1e-05, momentum=0.1, affine=False, track_running_stats=True)
        )
        (2): Sequential(
          (0): Linear(in_features=512, out_features=128, bias=True)
          (1): BatchNorm1d(128, eps=1e-05, momentum=0.1, affine=False, track_running_stats=True)
        )
        (3): Sequential(
          (0): Linear(in_features=128, out_features=1, bias=True)
          (1): BatchNorm1d(1, eps=1e-05, momentum=0.1, affine=False, track_running_stats=True)
        )
      )
    )
  )
)
[ INFO : 2024-01-18 15:29:18,469 ] - DeepGCCA(
  (model_list): ModuleList(
    (0-2): 3 x MlpNet(
      (layers): ModuleList(
        (0): Sequential(
          (0): Linear(in_features=100, out_features=256, bias=True)
          (1): BatchNorm1d(256, eps=1e-05, momentum=0.1, affine=False, track_running_stats=True)
        )
        (1): Sequential(
          (0): Linear(in_features=256, out_features=512, bias=True)
          (1): BatchNorm1d(512, eps=1e-05, momentum=0.1, affine=False, track_running_stats=True)
        )
        (2): Sequential(
          (0): Linear(in_features=512, out_features=128, bias=True)
          (1): BatchNorm1d(128, eps=1e-05, momentum=0.1, affine=False, track_running_stats=True)
        )
        (3): Sequential(
          (0): Linear(in_features=128, out_features=1, bias=True)
          (1): BatchNorm1d(1, eps=1e-05, momentum=0.1, affine=False, track_running_stats=True)
        )
      )
    )
  )
)
[ INFO : 2024-01-18 15:29:18,472 ] - Adam (
Parameter Group 0
    amsgrad: False
    betas: (0.9, 0.999)
    capturable: False
    differentiable: False
    eps: 1e-08
    foreach: None
    fused: None
    initial_lr: 0.05
    lr: 0.05
    maximize: False
    weight_decay: 1e-05
)
[ INFO : 2024-01-18 15:29:18,472 ] - Adam (
…
[ INFO : 2024-01-18 15:29:18,536 ] - Epoch 2/2 - time: 0.03 - training_loss: -2.6193
[ INFO : 2024-01-18 15:29:18,536 ] - Epoch 2/2 - time: 0.03 - training_loss: -2.6193
[ INFO : 2024-01-18 15:29:18,536 ] - Epoch 2/2 - time: 0.03 - training_loss: -2.6193
[ INFO : 2024-01-18 15:29:18,536 ] - Epoch 2/2 - time: 0.03 - training_loss: -2.6193
[ INFO : 2024-01-18 15:29:18,536 ] - Epoch 2/2 - time: 0.03 - training_loss: -2.6193
[ INFO : 2024-01-18 15:29:18,536 ] - Epoch 2/2 - time: 0.03 - training_loss: -2.6193
[ INFO : 2024-01-18 15:29:18,568 ] - DeepGCCA(
  (model_list): ModuleList(
    (0-2): 3 x MlpNet(
      (layers): ModuleList(
        (0): Sequential(
          (0): Linear(in_features=100, out_features=256, bias=True)
          (1): BatchNorm1d(256, eps=1e-05, momentum=0.1, affine=False, track_running_stats=True)
        )
        (1): Sequential(
          (0): Linear(in_features=256, out_features=512, bias=True)
          (1): BatchNorm1d(512, eps=1e-05, momentum=0.1, affine=False, track_running_stats=True)
        )
        (2): Sequential(
          (0): Linear(in_features=512, out_features=128, bias=True)
          (1): BatchNorm1d(128, eps=1e-05, momentum=0.1, affine=False, track_running_stats=True)
        )
        (3): Sequential(
          (0): Linear(in_features=128, out_features=1, bias=True)
          (1): BatchNorm1d(1, eps=1e-05, momentum=0.1, affine=False, track_running_stats=True)
        )
      )
    )
  )
)
[ INFO : 2024-01-18 15:29:18,568 ] - DeepGCCA(
  (model_list): ModuleList(
    (0-2): 3 x MlpNet(
      (layers): ModuleList(
        (0): Sequential(
          (0): Linear(in_features=100, out_features=256, bias=True)
          (1): BatchNorm1d(256, eps=1e-05, momentum=0.1, affine=False, track_running_stats=True)
        )
        (1): Sequential(
          (0): Linear(in_features=256, out_features=512, bias=True)
          (1): BatchNorm1d(512, eps=1e-05, momentum=0.1, affine=False, track_running_stats=True)
        )
        (2): Sequential(
          (0): Linear(in_features=512, out_features=128, bias=True)
          (1): BatchNorm1d(128, eps=1e-05, momentum=0.1, affine=False, track_running_stats=True)
        )
        (3): Sequential(
          (0): Linear(in_features=128, out_features=1, bias=True)
          (1): BatchNorm1d(1, eps=1e-05, momentum=0.1, affine=False, track_running_stats=True)
        )
      )
    )
  )
)
[ INFO : 2024-01-18 15:29:18,568 ] - DeepGCCA(
  (model_list): ModuleList(
    (0-2): 3 x MlpNet(
      (layers): ModuleList(
        (0): Sequential(
          (0): Linear(in_features=100, out_features=256, bias=True)
          (1): BatchNorm1d(256, eps=1e-05, momentum=0.1, affine=False, track_running_stats=True)
        )
        (1): Sequential(
          (0): Linear(in_features=256, out_features=512, bias=True)
          (1): BatchNorm1d(512, eps=1e-05, momentum=0.1, affine=False, track_running_stats=True)
        )
        (2): Sequential(
          (0): Linear(in_features=512, out_features=128, bias=True)
          (1): BatchNorm1d(128, eps=1e-05, momentum=0.1, affine=False, track_running_stats=True)
        )
        (3): Sequential(
          (0): Linear(in_features=128, out_features=1, bias=True)
          (1): BatchNorm1d(1, eps=1e-05, momentum=0.1, affine=False, track_running_stats=True)
        )
      )
    )
  )
)
[ INFO : 2024-01-18 15:29:18,568 ] - DeepGCCA(
  (model_list): ModuleList(
    (0-2): 3 x MlpNet(
      (layers): ModuleList(
        (0): Sequential(
          (0): Linear(in_features=100, out_features=256, bias=True)
          (1): BatchNorm1d(256, eps=1e-05, momentum=0.1, affine=False, track_running_stats=True)
        )
        (1): Sequential(
          (0): Linear(in_features=256, out_features=512, bias=True)
          (1): BatchNorm1d(512, eps=1e-05, momentum=0.1, affine=False, track_running_stats=True)
        )
        (2): Sequential(
          (0): Linear(in_features=512, out_features=128, bias=True)
          (1): BatchNorm1d(128, eps=1e-05, momentum=0.1, affine=False, track_running_stats=True)
        )
        (3): Sequential(
          (0): Linear(in_features=128, out_features=1, bias=True)
          (1): BatchNorm1d(1, eps=1e-05, momentum=0.1, affine=False, track_running_stats=True)
        )
      )
    )
  )
)
[ INFO : 2024-01-18 15:29:18,568 ] - DeepGCCA(
  (model_list): ModuleList(
    (0-2): 3 x MlpNet(
      (layers): ModuleList(
        (0): Sequential(
          (0): Linear(in_features=100, out_features=256, bias=True)
          (1): BatchNorm1d(256, eps=1e-05, momentum=0.1, affine=False, track_running_stats=True)
        )
        (1): Sequential(
          (0): Linear(in_features=256, out_features=512, bias=True)
          (1): BatchNorm1d(512, eps=1e-05, momentum=0.1, affine=False, track_running_stats=True)
        )
        (2): Sequential(
          (0): Linear(in_features=512, out_features=128, bias=True)
          (1): BatchNorm1d(128, eps=1e-05, momentum=0.1, affine=False, track_running_stats=True)
        )
        (3): Sequential(
          (0): Linear(in_features=128, out_features=1, bias=True)
          (1): BatchNorm1d(1, eps=1e-05, momentum=0.1, affine=False, track_running_stats=True)
        )
      )
    )
  )
)
[ INFO : 2024-01-18 15:29:18,568 ] - DeepGCCA(
  (model_list): ModuleList(
    (0-2): 3 x MlpNet(
      (layers): ModuleList(
        (0): Sequential(
          (0): Linear(in_features=100, out_features=256, bias=True)
          (1): BatchNorm1d(256, eps=1e-05, momentum=0.1, affine=False, track_running_stats=True)
        )
        (1): Sequential(
          (0): Linear(in_features=256, out_features=512, bias=True)
          (1): BatchNorm1d(512, eps=1e-05, momentum=0.1, affine=False, track_running_stats=True)
        )
        (2): Sequential(
          (0): Linear(in_features=512, out_features=128, bias=True)
          (1): BatchNorm1d(128, eps=1e-05, momentum=0.1, affine=False, track_running_stats=True)
        )
        (3): Sequential(
          (0): Linear(in_features=128, out_features=1, bias=True)
          (1): BatchNorm1d(1, eps=1e-05, momentum=0.1, affine=False, track_running_stats=True)
        )
      )
    )
  )
)
[ INFO : 2024-01-18 15:29:18,568 ] - DeepGCCA(
  (model_list): ModuleList(
    (0-2): 3 x MlpNet(
      (layers): ModuleList(
        (0): Sequential(
          (0): Linear(in_features=100, out_features=256, bias=True)
          (1): BatchNorm1d(256, eps=1e-05, momentum=0.1, affine=False, track_running_stats=True)
        )
        (1): Sequential(
          (0): Linear(in_features=256, out_features=512, bias=True)
          (1): BatchNorm1d(512, eps=1e-05, momentum=0.1, affine=False, track_running_stats=True)
        )
        (2): Sequential(
          (0): Linear(in_features=512, out_features=128, bias=True)
          (1): BatchNorm1d(128, eps=1e-05, momentum=0.1, affine=False, track_running_stats=True)
        )
        (3): Sequential(
          (0): Linear(in_features=128, out_features=1, bias=True)
          (1): BatchNorm1d(1, eps=1e-05, momentum=0.1, affine=False, track_running_stats=True)
        )
      )
    )
  )
)
[ INFO : 2024-01-18 15:29:18,572 ] - Adam (
Parameter Group 0
    amsgrad: False
    betas: (0.9, 0.999)
    capturable: False
    differentiable: False
    eps: 1e-08
    foreach: None
    fused: None
    initial_lr: 0.05
    lr: 0.05
    maximize: False
    weight_decay: 1e-05
)
[ INFO : 2024-01-18 15:29:18,572 ] - Adam (
…
[ INFO : 2024-01-18 15:29:18,636 ] - Epoch 2/2 - time: 0.03 - training_loss: -2.6609
[ INFO : 2024-01-18 15:29:18,636 ] - Epoch 2/2 - time: 0.03 - training_loss: -2.6609
[ INFO : 2024-01-18 15:29:18,636 ] - Epoch 2/2 - time: 0.03 - training_loss: -2.6609
[ INFO : 2024-01-18 15:29:18,636 ] - Epoch 2/2 - time: 0.03 - training_loss: -2.6609
[ INFO : 2024-01-18 15:29:18,636 ] - Epoch 2/2 - time: 0.03 - training_loss: -2.6609
[ INFO : 2024-01-18 15:29:18,636 ] - Epoch 2/2 - time: 0.03 - training_loss: -2.6609
[ INFO : 2024-01-18 15:29:18,668 ] - DeepGCCA(
  (model_list): ModuleList(
    (0-2): 3 x MlpNet(
      (layers): ModuleList(
        (0): Sequential(
          (0): Linear(in_features=100, out_features=256, bias=True)
          (1): BatchNorm1d(256, eps=1e-05, momentum=0.1, affine=False, track_running_stats=True)
        )
        (1): Sequential(
          (0): Linear(in_features=256, out_features=512, bias=True)
          (1): BatchNorm1d(512, eps=1e-05, momentum=0.1, affine=False, track_running_stats=True)
        )
        (2): Sequential(
          (0): Linear(in_features=512, out_features=128, bias=True)
          (1): BatchNorm1d(128, eps=1e-05, momentum=0.1, affine=False, track_running_stats=True)
        )
        (3): Sequential(
          (0): Linear(in_features=128, out_features=1, bias=True)
          (1): BatchNorm1d(1, eps=1e-05, momentum=0.1, affine=False, track_running_stats=True)
        )
      )
    )
  )
)
[ INFO : 2024-01-18 15:29:18,668 ] - DeepGCCA(
  (model_list): ModuleList(
    (0-2): 3 x MlpNet(
      (layers): ModuleList(
        (0): Sequential(
          (0): Linear(in_features=100, out_features=256, bias=True)
          (1): BatchNorm1d(256, eps=1e-05, momentum=0.1, affine=False, track_running_stats=True)
        )
        (1): Sequential(
          (0): Linear(in_features=256, out_features=512, bias=True)
          (1): BatchNorm1d(512, eps=1e-05, momentum=0.1, affine=False, track_running_stats=True)
        )
        (2): Sequential(
          (0): Linear(in_features=512, out_features=128, bias=True)
          (1): BatchNorm1d(128, eps=1e-05, momentum=0.1, affine=False, track_running_stats=True)
        )
        (3): Sequential(
          (0): Linear(in_features=128, out_features=1, bias=True)
          (1): BatchNorm1d(1, eps=1e-05, momentum=0.1, affine=False, track_running_stats=True)
        )
      )
    )
  )
)
[ INFO : 2024-01-18 15:29:18,668 ] - DeepGCCA(
  (model_list): ModuleList(
    (0-2): 3 x MlpNet(
      (layers): ModuleList(
        (0): Sequential(
          (0): Linear(in_features=100, out_features=256, bias=True)
          (1): BatchNorm1d(256, eps=1e-05, momentum=0.1, affine=False, track_running_stats=True)
        )
        (1): Sequential(
          (0): Linear(in_features=256, out_features=512, bias=True)
          (1): BatchNorm1d(512, eps=1e-05, momentum=0.1, affine=False, track_running_stats=True)
        )
        (2): Sequential(
          (0): Linear(in_features=512, out_features=128, bias=True)
          (1): BatchNorm1d(128, eps=1e-05, momentum=0.1, affine=False, track_running_stats=True)
        )
        (3): Sequential(
          (0): Linear(in_features=128, out_features=1, bias=True)
          (1): BatchNorm1d(1, eps=1e-05, momentum=0.1, affine=False, track_running_stats=True)
        )
      )
    )
  )
)
[ INFO : 2024-01-18 15:29:18,668 ] - DeepGCCA(
  (model_list): ModuleList(
    (0-2): 3 x MlpNet(
      (layers): ModuleList(
        (0): Sequential(
          (0): Linear(in_features=100, out_features=256, bias=True)
          (1): BatchNorm1d(256, eps=1e-05, momentum=0.1, affine=False, track_running_stats=True)
        )
        (1): Sequential(
          (0): Linear(in_features=256, out_features=512, bias=True)
          (1): BatchNorm1d(512, eps=1e-05, momentum=0.1, affine=False, track_running_stats=True)
        )
        (2): Sequential(
          (0): Linear(in_features=512, out_features=128, bias=True)
          (1): BatchNorm1d(128, eps=1e-05, momentum=0.1, affine=False, track_running_stats=True)
        )
        (3): Sequential(
          (0): Linear(in_features=128, out_features=1, bias=True)
          (1): BatchNorm1d(1, eps=1e-05, momentum=0.1, affine=False, track_running_stats=True)
        )
      )
    )
  )
)
[ INFO : 2024-01-18 15:29:18,668 ] - DeepGCCA(
  (model_list): ModuleList(
    (0-2): 3 x MlpNet(
      (layers): ModuleList(
        (0): Sequential(
          (0): Linear(in_features=100, out_features=256, bias=True)
          (1): BatchNorm1d(256, eps=1e-05, momentum=0.1, affine=False, track_running_stats=True)
        )
        (1): Sequential(
          (0): Linear(in_features=256, out_features=512, bias=True)
          (1): BatchNorm1d(512, eps=1e-05, momentum=0.1, affine=False, track_running_stats=True)
        )
        (2): Sequential(
          (0): Linear(in_features=512, out_features=128, bias=True)
          (1): BatchNorm1d(128, eps=1e-05, momentum=0.1, affine=False, track_running_stats=True)
        )
        (3): Sequential(
          (0): Linear(in_features=128, out_features=1, bias=True)
          (1): BatchNorm1d(1, eps=1e-05, momentum=0.1, affine=False, track_running_stats=True)
        )
      )
    )
  )
)
[ INFO : 2024-01-18 15:29:18,668 ] - DeepGCCA(
  (model_list): ModuleList(
    (0-2): 3 x MlpNet(
      (layers): ModuleList(
        (0): Sequential(
          (0): Linear(in_features=100, out_features=256, bias=True)
          (1): BatchNorm1d(256, eps=1e-05, momentum=0.1, affine=False, track_running_stats=True)
        )
        (1): Sequential(
          (0): Linear(in_features=256, out_features=512, bias=True)
          (1): BatchNorm1d(512, eps=1e-05, momentum=0.1, affine=False, track_running_stats=True)
        )
        (2): Sequential(
          (0): Linear(in_features=512, out_features=128, bias=True)
          (1): BatchNorm1d(128, eps=1e-05, momentum=0.1, affine=False, track_running_stats=True)
        )
        (3): Sequential(
          (0): Linear(in_features=128, out_features=1, bias=True)
          (1): BatchNorm1d(1, eps=1e-05, momentum=0.1, affine=False, track_running_stats=True)
        )
      )
    )
  )
)
[ INFO : 2024-01-18 15:29:18,668 ] - DeepGCCA(
  (model_list): ModuleList(
    (0-2): 3 x MlpNet(
      (layers): ModuleList(
        (0): Sequential(
          (0): Linear(in_features=100, out_features=256, bias=True)
          (1): BatchNorm1d(256, eps=1e-05, momentum=0.1, affine=False, track_running_stats=True)
        )
        (1): Sequential(
          (0): Linear(in_features=256, out_features=512, bias=True)
          (1): BatchNorm1d(512, eps=1e-05, momentum=0.1, affine=False, track_running_stats=True)
        )
        (2): Sequential(
          (0): Linear(in_features=512, out_features=128, bias=True)
          (1): BatchNorm1d(128, eps=1e-05, momentum=0.1, affine=False, track_running_stats=True)
        )
        (3): Sequential(
          (0): Linear(in_features=128, out_features=1, bias=True)
          (1): BatchNorm1d(1, eps=1e-05, momentum=0.1, affine=False, track_running_stats=True)
        )
      )
    )
  )
)
[ INFO : 2024-01-18 15:29:18,668 ] - DeepGCCA(
  (model_list): ModuleList(
    (0-2): 3 x MlpNet(
      (layers): ModuleList(
        (0): Sequential(
          (0): Linear(in_features=100, out_features=256, bias=True)
          (1): BatchNorm1d(256, eps=1e-05, momentum=0.1, affine=False, track_running_stats=True)
        )
        (1): Sequential(
          (0): Linear(in_features=256, out_features=512, bias=True)
          (1): BatchNorm1d(512, eps=1e-05, momentum=0.1, affine=False, track_running_stats=True)
        )
        (2): Sequential(
          (0): Linear(in_features=512, out_features=128, bias=True)
          (1): BatchNorm1d(128, eps=1e-05, momentum=0.1, affine=False, track_running_stats=True)
        )
        (3): Sequential(
          (0): Linear(in_features=128, out_features=1, bias=True)
          (1): BatchNorm1d(1, eps=1e-05, momentum=0.1, affine=False, track_running_stats=True)
        )
      )
    )
  )
)
[ INFO : 2024-01-18 15:29:18,672 ] - Adam (
Parameter Group 0
    amsgrad: False
    betas: (0.9, 0.999)
    capturable: False
    differentiable: False
    eps: 1e-08
    foreach: None
    fused: None
    initial_lr: 0.05
    lr: 0.05
    maximize: False
    weight_decay: 1e-05
)
[ INFO : 2024-01-18 15:29:18,672 ] - Adam (
…
[ INFO : 2024-01-18 15:29:18,756 ] - Epoch 2/2 - time: 0.03 - training_loss: -2.4648
[ INFO : 2024-01-18 15:29:18,756 ] - Epoch 2/2 - time: 0.03 - training_loss: -2.4648
[ INFO : 2024-01-18 15:29:18,756 ] - Epoch 2/2 - time: 0.03 - training_loss: -2.4648
[ INFO : 2024-01-18 15:29:18,756 ] - Epoch 2/2 - time: 0.03 - training_loss: -2.4648
[ INFO : 2024-01-18 15:29:18,756 ] - Epoch 2/2 - time: 0.03 - training_loss: -2.4648
[ INFO : 2024-01-18 15:29:18,756 ] - Epoch 2/2 - time: 0.03 - training_loss: -2.4648
[ INFO : 2024-01-18 15:29:18,791 ] - DeepGCCA(
  (model_list): ModuleList(
    (0-2): 3 x MlpNet(
      (layers): ModuleList(
        (0): Sequential(
          (0): Linear(in_features=100, out_features=256, bias=True)
          (1): BatchNorm1d(256, eps=1e-05, momentum=0.1, affine=False, track_running_stats=True)
        )
        (1): Sequential(
          (0): Linear(in_features=256, out_features=512, bias=True)
          (1): BatchNorm1d(512, eps=1e-05, momentum=0.1, affine=False, track_running_stats=True)
        )
        (2): Sequential(
          (0): Linear(in_features=512, out_features=128, bias=True)
          (1): BatchNorm1d(128, eps=1e-05, momentum=0.1, affine=False, track_running_stats=True)
        )
        (3): Sequential(
          (0): Linear(in_features=128, out_features=1, bias=True)
          (1): BatchNorm1d(1, eps=1e-05, momentum=0.1, affine=False, track_running_stats=True)
        )
      )
    )
  )
)
[ INFO : 2024-01-18 15:29:18,791 ] - DeepGCCA(
  (model_list): ModuleList(
    (0-2): 3 x MlpNet(
      (layers): ModuleList(
        (0): Sequential(
          (0): Linear(in_features=100, out_features=256, bias=True)
          (1): BatchNorm1d(256, eps=1e-05, momentum=0.1, affine=False, track_running_stats=True)
        )
        (1): Sequential(
          (0): Linear(in_features=256, out_features=512, bias=True)
          (1): BatchNorm1d(512, eps=1e-05, momentum=0.1, affine=False, track_running_stats=True)
        )
        (2): Sequential(
          (0): Linear(in_features=512, out_features=128, bias=True)
          (1): BatchNorm1d(128, eps=1e-05, momentum=0.1, affine=False, track_running_stats=True)
        )
        (3): Sequential(
          (0): Linear(in_features=128, out_features=1, bias=True)
          (1): BatchNorm1d(1, eps=1e-05, momentum=0.1, affine=False, track_running_stats=True)
        )
      )
    )
  )
)
[ INFO : 2024-01-18 15:29:18,791 ] - DeepGCCA(
  (model_list): ModuleList(
    (0-2): 3 x MlpNet(
      (layers): ModuleList(
        (0): Sequential(
          (0): Linear(in_features=100, out_features=256, bias=True)
          (1): BatchNorm1d(256, eps=1e-05, momentum=0.1, affine=False, track_running_stats=True)
        )
        (1): Sequential(
          (0): Linear(in_features=256, out_features=512, bias=True)
          (1): BatchNorm1d(512, eps=1e-05, momentum=0.1, affine=False, track_running_stats=True)
        )
        (2): Sequential(
          (0): Linear(in_features=512, out_features=128, bias=True)
          (1): BatchNorm1d(128, eps=1e-05, momentum=0.1, affine=False, track_running_stats=True)
        )
        (3): Sequential(
          (0): Linear(in_features=128, out_features=1, bias=True)
          (1): BatchNorm1d(1, eps=1e-05, momentum=0.1, affine=False, track_running_stats=True)
        )
      )
    )
  )
)
[ INFO : 2024-01-18 15:29:18,791 ] - DeepGCCA(
  (model_list): ModuleList(
    (0-2): 3 x MlpNet(
      (layers): ModuleList(
        (0): Sequential(
          (0): Linear(in_features=100, out_features=256, bias=True)
          (1): BatchNorm1d(256, eps=1e-05, momentum=0.1, affine=False, track_running_stats=True)
        )
        (1): Sequential(
          (0): Linear(in_features=256, out_features=512, bias=True)
          (1): BatchNorm1d(512, eps=1e-05, momentum=0.1, affine=False, track_running_stats=True)
        )
        (2): Sequential(
          (0): Linear(in_features=512, out_features=128, bias=True)
          (1): BatchNorm1d(128, eps=1e-05, momentum=0.1, affine=False, track_running_stats=True)
        )
        (3): Sequential(
          (0): Linear(in_features=128, out_features=1, bias=True)
          (1): BatchNorm1d(1, eps=1e-05, momentum=0.1, affine=False, track_running_stats=True)
        )
      )
    )
  )
)
[ INFO : 2024-01-18 15:29:18,791 ] - DeepGCCA(
  (model_list): ModuleList(
    (0-2): 3 x MlpNet(
      (layers): ModuleList(
        (0): Sequential(
          (0): Linear(in_features=100, out_features=256, bias=True)
          (1): BatchNorm1d(256, eps=1e-05, momentum=0.1, affine=False, track_running_stats=True)
        )
        (1): Sequential(
          (0): Linear(in_features=256, out_features=512, bias=True)
          (1): BatchNorm1d(512, eps=1e-05, momentum=0.1, affine=False, track_running_stats=True)
        )
        (2): Sequential(
          (0): Linear(in_features=512, out_features=128, bias=True)
          (1): BatchNorm1d(128, eps=1e-05, momentum=0.1, affine=False, track_running_stats=True)
        )
        (3): Sequential(
          (0): Linear(in_features=128, out_features=1, bias=True)
          (1): BatchNorm1d(1, eps=1e-05, momentum=0.1, affine=False, track_running_stats=True)
        )
      )
    )
  )
)
[ INFO : 2024-01-18 15:29:18,791 ] - DeepGCCA(
  (model_list): ModuleList(
    (0-2): 3 x MlpNet(
      (layers): ModuleList(
        (0): Sequential(
          (0): Linear(in_features=100, out_features=256, bias=True)
          (1): BatchNorm1d(256, eps=1e-05, momentum=0.1, affine=False, track_running_stats=True)
        )
        (1): Sequential(
          (0): Linear(in_features=256, out_features=512, bias=True)
          (1): BatchNorm1d(512, eps=1e-05, momentum=0.1, affine=False, track_running_stats=True)
        )
        (2): Sequential(
          (0): Linear(in_features=512, out_features=128, bias=True)
          (1): BatchNorm1d(128, eps=1e-05, momentum=0.1, affine=False, track_running_stats=True)
        )
        (3): Sequential(
          (0): Linear(in_features=128, out_features=1, bias=True)
          (1): BatchNorm1d(1, eps=1e-05, momentum=0.1, affine=False, track_running_stats=True)
        )
      )
    )
  )
)
[ INFO : 2024-01-18 15:29:18,791 ] - DeepGCCA(
  (model_list): ModuleList(
    (0-2): 3 x MlpNet(
      (layers): ModuleList(
        (0): Sequential(
          (0): Linear(in_features=100, out_features=256, bias=True)
          (1): BatchNorm1d(256, eps=1e-05, momentum=0.1, affine=False, track_running_stats=True)
        )
        (1): Sequential(
          (0): Linear(in_features=256, out_features=512, bias=True)
          (1): BatchNorm1d(512, eps=1e-05, momentum=0.1, affine=False, track_running_stats=True)
        )
        (2): Sequential(
          (0): Linear(in_features=512, out_features=128, bias=True)
          (1): BatchNorm1d(128, eps=1e-05, momentum=0.1, affine=False, track_running_stats=True)
        )
        (3): Sequential(
          (0): Linear(in_features=128, out_features=1, bias=True)
          (1): BatchNorm1d(1, eps=1e-05, momentum=0.1, affine=False, track_running_stats=True)
        )
      )
    )
  )
)
[ INFO : 2024-01-18 15:29:18,791 ] - DeepGCCA(
  (model_list): ModuleList(
    (0-2): 3 x MlpNet(
      (layers): ModuleList(
        (0): Sequential(
          (0): Linear(in_features=100, out_features=256, bias=True)
          (1): BatchNorm1d(256, eps=1e-05, momentum=0.1, affine=False, track_running_stats=True)
        )
        (1): Sequential(
          (0): Linear(in_features=256, out_features=512, bias=True)
          (1): BatchNorm1d(512, eps=1e-05, momentum=0.1, affine=False, track_running_stats=True)
        )
        (2): Sequential(
          (0): Linear(in_features=512, out_features=128, bias=True)
          (1): BatchNorm1d(128, eps=1e-05, momentum=0.1, affine=False, track_running_stats=True)
        )
        (3): Sequential(
          (0): Linear(in_features=128, out_features=1, bias=True)
          (1): BatchNorm1d(1, eps=1e-05, momentum=0.1, affine=False, track_running_stats=True)
        )
      )
    )
  )
)
[ INFO : 2024-01-18 15:29:18,791 ] - DeepGCCA(
  (model_list): ModuleList(
    (0-2): 3 x MlpNet(
      (layers): ModuleList(
        (0): Sequential(
          (0): Linear(in_features=100, out_features=256, bias=True)
          (1): BatchNorm1d(256, eps=1e-05, momentum=0.1, affine=False, track_running_stats=True)
        )
        (1): Sequential(
          (0): Linear(in_features=256, out_features=512, bias=True)
          (1): BatchNorm1d(512, eps=1e-05, momentum=0.1, affine=False, track_running_stats=True)
        )
        (2): Sequential(
          (0): Linear(in_features=512, out_features=128, bias=True)
          (1): BatchNorm1d(128, eps=1e-05, momentum=0.1, affine=False, track_running_stats=True)
        )
        (3): Sequential(
          (0): Linear(in_features=128, out_features=1, bias=True)
          (1): BatchNorm1d(1, eps=1e-05, momentum=0.1, affine=False, track_running_stats=True)
        )
      )
    )
  )
)
[ INFO : 2024-01-18 15:29:18,795 ] - Adam (
Parameter Group 0
    amsgrad: False
    betas: (0.9, 0.999)
    capturable: False
    differentiable: False
    eps: 1e-08
    foreach: None
    fused: None
    initial_lr: 0.05
    lr: 0.05
    maximize: False
    weight_decay: 1e-05
)
[ INFO : 2024-01-18 15:29:18,795 ] - Adam (
…
[ INFO : 2024-01-18 15:29:18,858 ] - Epoch 2/2 - time: 0.03 - training_loss: -2.7304
[ INFO : 2024-01-18 15:29:18,858 ] - Epoch 2/2 - time: 0.03 - training_loss: -2.7304
[ INFO : 2024-01-18 15:29:18,858 ] - Epoch 2/2 - time: 0.03 - training_loss: -2.7304
[ INFO : 2024-01-18 15:29:18,858 ] - Epoch 2/2 - time: 0.03 - training_loss: -2.7304
[ INFO : 2024-01-18 15:29:18,858 ] - Epoch 2/2 - time: 0.03 - training_loss: -2.7304
[ INFO : 2024-01-18 15:29:18,858 ] - Epoch 2/2 - time: 0.03 - training_loss: -2.7304
[ INFO : 2024-01-18 15:29:18,890 ] - DeepGCCA(
  (model_list): ModuleList(
    (0-2): 3 x MlpNet(
      (layers): ModuleList(
        (0): Sequential(
          (0): Linear(in_features=100, out_features=256, bias=True)
          (1): BatchNorm1d(256, eps=1e-05, momentum=0.1, affine=False, track_running_stats=True)
        )
        (1): Sequential(
          (0): Linear(in_features=256, out_features=512, bias=True)
          (1): BatchNorm1d(512, eps=1e-05, momentum=0.1, affine=False, track_running_stats=True)
        )
        (2): Sequential(
          (0): Linear(in_features=512, out_features=128, bias=True)
          (1): BatchNorm1d(128, eps=1e-05, momentum=0.1, affine=False, track_running_stats=True)
        )
        (3): Sequential(
          (0): Linear(in_features=128, out_features=1, bias=True)
          (1): BatchNorm1d(1, eps=1e-05, momentum=0.1, affine=False, track_running_stats=True)
        )
      )
    )
  )
)
[ INFO : 2024-01-18 15:29:18,890 ] - DeepGCCA(
  (model_list): ModuleList(
    (0-2): 3 x MlpNet(
      (layers): ModuleList(
        (0): Sequential(
          (0): Linear(in_features=100, out_features=256, bias=True)
          (1): BatchNorm1d(256, eps=1e-05, momentum=0.1, affine=False, track_running_stats=True)
        )
        (1): Sequential(
          (0): Linear(in_features=256, out_features=512, bias=True)
          (1): BatchNorm1d(512, eps=1e-05, momentum=0.1, affine=False, track_running_stats=True)
        )
        (2): Sequential(
          (0): Linear(in_features=512, out_features=128, bias=True)
          (1): BatchNorm1d(128, eps=1e-05, momentum=0.1, affine=False, track_running_stats=True)
        )
        (3): Sequential(
          (0): Linear(in_features=128, out_features=1, bias=True)
          (1): BatchNorm1d(1, eps=1e-05, momentum=0.1, affine=False, track_running_stats=True)
        )
      )
    )
  )
)
[ INFO : 2024-01-18 15:29:18,890 ] - DeepGCCA(
  (model_list): ModuleList(
    (0-2): 3 x MlpNet(
      (layers): ModuleList(
        (0): Sequential(
          (0): Linear(in_features=100, out_features=256, bias=True)
          (1): BatchNorm1d(256, eps=1e-05, momentum=0.1, affine=False, track_running_stats=True)
        )
        (1): Sequential(
          (0): Linear(in_features=256, out_features=512, bias=True)
          (1): BatchNorm1d(512, eps=1e-05, momentum=0.1, affine=False, track_running_stats=True)
        )
        (2): Sequential(
          (0): Linear(in_features=512, out_features=128, bias=True)
          (1): BatchNorm1d(128, eps=1e-05, momentum=0.1, affine=False, track_running_stats=True)
        )
        (3): Sequential(
          (0): Linear(in_features=128, out_features=1, bias=True)
          (1): BatchNorm1d(1, eps=1e-05, momentum=0.1, affine=False, track_running_stats=True)
        )
      )
    )
  )
)
[ INFO : 2024-01-18 15:29:18,890 ] - DeepGCCA(
  (model_list): ModuleList(
    (0-2): 3 x MlpNet(
      (layers): ModuleList(
        (0): Sequential(
          (0): Linear(in_features=100, out_features=256, bias=True)
          (1): BatchNorm1d(256, eps=1e-05, momentum=0.1, affine=False, track_running_stats=True)
        )
        (1): Sequential(
          (0): Linear(in_features=256, out_features=512, bias=True)
          (1): BatchNorm1d(512, eps=1e-05, momentum=0.1, affine=False, track_running_stats=True)
        )
        (2): Sequential(
          (0): Linear(in_features=512, out_features=128, bias=True)
          (1): BatchNorm1d(128, eps=1e-05, momentum=0.1, affine=False, track_running_stats=True)
        )
        (3): Sequential(
          (0): Linear(in_features=128, out_features=1, bias=True)
          (1): BatchNorm1d(1, eps=1e-05, momentum=0.1, affine=False, track_running_stats=True)
        )
      )
    )
  )
)
[ INFO : 2024-01-18 15:29:18,890 ] - DeepGCCA(
  (model_list): ModuleList(
    (0-2): 3 x MlpNet(
      (layers): ModuleList(
        (0): Sequential(
          (0): Linear(in_features=100, out_features=256, bias=True)
          (1): BatchNorm1d(256, eps=1e-05, momentum=0.1, affine=False, track_running_stats=True)
        )
        (1): Sequential(
          (0): Linear(in_features=256, out_features=512, bias=True)
          (1): BatchNorm1d(512, eps=1e-05, momentum=0.1, affine=False, track_running_stats=True)
        )
        (2): Sequential(
          (0): Linear(in_features=512, out_features=128, bias=True)
          (1): BatchNorm1d(128, eps=1e-05, momentum=0.1, affine=False, track_running_stats=True)
        )
        (3): Sequential(
          (0): Linear(in_features=128, out_features=1, bias=True)
          (1): BatchNorm1d(1, eps=1e-05, momentum=0.1, affine=False, track_running_stats=True)
        )
      )
    )
  )
)
[ INFO : 2024-01-18 15:29:18,890 ] - DeepGCCA(
  (model_list): ModuleList(
    (0-2): 3 x MlpNet(
      (layers): ModuleList(
        (0): Sequential(
          (0): Linear(in_features=100, out_features=256, bias=True)
          (1): BatchNorm1d(256, eps=1e-05, momentum=0.1, affine=False, track_running_stats=True)
        )
        (1): Sequential(
          (0): Linear(in_features=256, out_features=512, bias=True)
          (1): BatchNorm1d(512, eps=1e-05, momentum=0.1, affine=False, track_running_stats=True)
        )
        (2): Sequential(
          (0): Linear(in_features=512, out_features=128, bias=True)
          (1): BatchNorm1d(128, eps=1e-05, momentum=0.1, affine=False, track_running_stats=True)
        )
        (3): Sequential(
          (0): Linear(in_features=128, out_features=1, bias=True)
          (1): BatchNorm1d(1, eps=1e-05, momentum=0.1, affine=False, track_running_stats=True)
        )
      )
    )
  )
)
[ INFO : 2024-01-18 15:29:18,890 ] - DeepGCCA(
  (model_list): ModuleList(
    (0-2): 3 x MlpNet(
      (layers): ModuleList(
        (0): Sequential(
          (0): Linear(in_features=100, out_features=256, bias=True)
          (1): BatchNorm1d(256, eps=1e-05, momentum=0.1, affine=False, track_running_stats=True)
        )
        (1): Sequential(
          (0): Linear(in_features=256, out_features=512, bias=True)
          (1): BatchNorm1d(512, eps=1e-05, momentum=0.1, affine=False, track_running_stats=True)
        )
        (2): Sequential(
          (0): Linear(in_features=512, out_features=128, bias=True)
          (1): BatchNorm1d(128, eps=1e-05, momentum=0.1, affine=False, track_running_stats=True)
        )
        (3): Sequential(
          (0): Linear(in_features=128, out_features=1, bias=True)
          (1): BatchNorm1d(1, eps=1e-05, momentum=0.1, affine=False, track_running_stats=True)
        )
      )
    )
  )
)
[ INFO : 2024-01-18 15:29:18,890 ] - DeepGCCA(
  (model_list): ModuleList(
    (0-2): 3 x MlpNet(
      (layers): ModuleList(
        (0): Sequential(
          (0): Linear(in_features=100, out_features=256, bias=True)
          (1): BatchNorm1d(256, eps=1e-05, momentum=0.1, affine=False, track_running_stats=True)
        )
        (1): Sequential(
          (0): Linear(in_features=256, out_features=512, bias=True)
          (1): BatchNorm1d(512, eps=1e-05, momentum=0.1, affine=False, track_running_stats=True)
        )
        (2): Sequential(
          (0): Linear(in_features=512, out_features=128, bias=True)
          (1): BatchNorm1d(128, eps=1e-05, momentum=0.1, affine=False, track_running_stats=True)
        )
        (3): Sequential(
          (0): Linear(in_features=128, out_features=1, bias=True)
          (1): BatchNorm1d(1, eps=1e-05, momentum=0.1, affine=False, track_running_stats=True)
        )
      )
    )
  )
)
[ INFO : 2024-01-18 15:29:18,890 ] - DeepGCCA(
  (model_list): ModuleList(
    (0-2): 3 x MlpNet(
      (layers): ModuleList(
        (0): Sequential(
          (0): Linear(in_features=100, out_features=256, bias=True)
          (1): BatchNorm1d(256, eps=1e-05, momentum=0.1, affine=False, track_running_stats=True)
        )
        (1): Sequential(
          (0): Linear(in_features=256, out_features=512, bias=True)
          (1): BatchNorm1d(512, eps=1e-05, momentum=0.1, affine=False, track_running_stats=True)
        )
        (2): Sequential(
          (0): Linear(in_features=512, out_features=128, bias=True)
          (1): BatchNorm1d(128, eps=1e-05, momentum=0.1, affine=False, track_running_stats=True)
        )
        (3): Sequential(
          (0): Linear(in_features=128, out_features=1, bias=True)
          (1): BatchNorm1d(1, eps=1e-05, momentum=0.1, affine=False, track_running_stats=True)
        )
      )
    )
  )
)
[ INFO : 2024-01-18 15:29:18,890 ] - DeepGCCA(
  (model_list): ModuleList(
    (0-2): 3 x MlpNet(
      (layers): ModuleList(
        (0): Sequential(
          (0): Linear(in_features=100, out_features=256, bias=True)
          (1): BatchNorm1d(256, eps=1e-05, momentum=0.1, affine=False, track_running_stats=True)
        )
        (1): Sequential(
          (0): Linear(in_features=256, out_features=512, bias=True)
          (1): BatchNorm1d(512, eps=1e-05, momentum=0.1, affine=False, track_running_stats=True)
        )
        (2): Sequential(
          (0): Linear(in_features=512, out_features=128, bias=True)
          (1): BatchNorm1d(128, eps=1e-05, momentum=0.1, affine=False, track_running_stats=True)
        )
        (3): Sequential(
          (0): Linear(in_features=128, out_features=1, bias=True)
          (1): BatchNorm1d(1, eps=1e-05, momentum=0.1, affine=False, track_running_stats=True)
        )
      )
    )
  )
)
[ INFO : 2024-01-18 15:29:18,895 ] - Adam (
Parameter Group 0
    amsgrad: False
    betas: (0.9, 0.999)
    capturable: False
    differentiable: False
    eps: 1e-08
    foreach: None
    fused: None
    initial_lr: 0.05
    lr: 0.05
    maximize: False
    weight_decay: 1e-05
)
[ INFO : 2024-01-18 15:29:18,895 ] - Adam (
…
[ INFO : 2024-01-18 15:29:18,958 ] - Epoch 2/2 - time: 0.03 - training_loss: -2.7446
[ INFO : 2024-01-18 15:29:18,958 ] - Epoch 2/2 - time: 0.03 - training_loss: -2.7446
[ INFO : 2024-01-18 15:29:18,958 ] - Epoch 2/2 - time: 0.03 - training_loss: -2.7446
[ INFO : 2024-01-18 15:29:18,958 ] - Epoch 2/2 - time: 0.03 - training_loss: -2.7446
[ INFO : 2024-01-18 15:29:18,958 ] - Epoch 2/2 - time: 0.03 - training_loss: -2.7446
[ INFO : 2024-01-18 15:29:18,958 ] - Epoch 2/2 - time: 0.03 - training_loss: -2.7446
[ INFO : 2024-01-18 15:29:18,990 ] - DeepGCCA(
  (model_list): ModuleList(
    (0-2): 3 x MlpNet(
      (layers): ModuleList(
        (0): Sequential(
          (0): Linear(in_features=100, out_features=256, bias=True)
          (1): BatchNorm1d(256, eps=1e-05, momentum=0.1, affine=False, track_running_stats=True)
        )
        (1): Sequential(
          (0): Linear(in_features=256, out_features=512, bias=True)
          (1): BatchNorm1d(512, eps=1e-05, momentum=0.1, affine=False, track_running_stats=True)
        )
        (2): Sequential(
          (0): Linear(in_features=512, out_features=128, bias=True)
          (1): BatchNorm1d(128, eps=1e-05, momentum=0.1, affine=False, track_running_stats=True)
        )
        (3): Sequential(
          (0): Linear(in_features=128, out_features=1, bias=True)
          (1): BatchNorm1d(1, eps=1e-05, momentum=0.1, affine=False, track_running_stats=True)
        )
      )
    )
  )
)
[ INFO : 2024-01-18 15:29:18,990 ] - DeepGCCA(
  (model_list): ModuleList(
    (0-2): 3 x MlpNet(
      (layers): ModuleList(
        (0): Sequential(
          (0): Linear(in_features=100, out_features=256, bias=True)
          (1): BatchNorm1d(256, eps=1e-05, momentum=0.1, affine=False, track_running_stats=True)
        )
        (1): Sequential(
          (0): Linear(in_features=256, out_features=512, bias=True)
          (1): BatchNorm1d(512, eps=1e-05, momentum=0.1, affine=False, track_running_stats=True)
        )
        (2): Sequential(
          (0): Linear(in_features=512, out_features=128, bias=True)
          (1): BatchNorm1d(128, eps=1e-05, momentum=0.1, affine=False, track_running_stats=True)
        )
        (3): Sequential(
          (0): Linear(in_features=128, out_features=1, bias=True)
          (1): BatchNorm1d(1, eps=1e-05, momentum=0.1, affine=False, track_running_stats=True)
        )
      )
    )
  )
)
[ INFO : 2024-01-18 15:29:18,990 ] - DeepGCCA(
  (model_list): ModuleList(
    (0-2): 3 x MlpNet(
      (layers): ModuleList(
        (0): Sequential(
          (0): Linear(in_features=100, out_features=256, bias=True)
          (1): BatchNorm1d(256, eps=1e-05, momentum=0.1, affine=False, track_running_stats=True)
        )
        (1): Sequential(
          (0): Linear(in_features=256, out_features=512, bias=True)
          (1): BatchNorm1d(512, eps=1e-05, momentum=0.1, affine=False, track_running_stats=True)
        )
        (2): Sequential(
          (0): Linear(in_features=512, out_features=128, bias=True)
          (1): BatchNorm1d(128, eps=1e-05, momentum=0.1, affine=False, track_running_stats=True)
        )
        (3): Sequential(
          (0): Linear(in_features=128, out_features=1, bias=True)
          (1): BatchNorm1d(1, eps=1e-05, momentum=0.1, affine=False, track_running_stats=True)
        )
      )
    )
  )
)
[ INFO : 2024-01-18 15:29:18,990 ] - DeepGCCA(
  (model_list): ModuleList(
    (0-2): 3 x MlpNet(
      (layers): ModuleList(
        (0): Sequential(
          (0): Linear(in_features=100, out_features=256, bias=True)
          (1): BatchNorm1d(256, eps=1e-05, momentum=0.1, affine=False, track_running_stats=True)
        )
        (1): Sequential(
          (0): Linear(in_features=256, out_features=512, bias=True)
          (1): BatchNorm1d(512, eps=1e-05, momentum=0.1, affine=False, track_running_stats=True)
        )
        (2): Sequential(
          (0): Linear(in_features=512, out_features=128, bias=True)
          (1): BatchNorm1d(128, eps=1e-05, momentum=0.1, affine=False, track_running_stats=True)
        )
        (3): Sequential(
          (0): Linear(in_features=128, out_features=1, bias=True)
          (1): BatchNorm1d(1, eps=1e-05, momentum=0.1, affine=False, track_running_stats=True)
        )
      )
    )
  )
)
[ INFO : 2024-01-18 15:29:18,990 ] - DeepGCCA(
  (model_list): ModuleList(
    (0-2): 3 x MlpNet(
      (layers): ModuleList(
        (0): Sequential(
          (0): Linear(in_features=100, out_features=256, bias=True)
          (1): BatchNorm1d(256, eps=1e-05, momentum=0.1, affine=False, track_running_stats=True)
        )
        (1): Sequential(
          (0): Linear(in_features=256, out_features=512, bias=True)
          (1): BatchNorm1d(512, eps=1e-05, momentum=0.1, affine=False, track_running_stats=True)
        )
        (2): Sequential(
          (0): Linear(in_features=512, out_features=128, bias=True)
          (1): BatchNorm1d(128, eps=1e-05, momentum=0.1, affine=False, track_running_stats=True)
        )
        (3): Sequential(
          (0): Linear(in_features=128, out_features=1, bias=True)
          (1): BatchNorm1d(1, eps=1e-05, momentum=0.1, affine=False, track_running_stats=True)
        )
      )
    )
  )
)
[ INFO : 2024-01-18 15:29:18,990 ] - DeepGCCA(
  (model_list): ModuleList(
    (0-2): 3 x MlpNet(
      (layers): ModuleList(
        (0): Sequential(
          (0): Linear(in_features=100, out_features=256, bias=True)
          (1): BatchNorm1d(256, eps=1e-05, momentum=0.1, affine=False, track_running_stats=True)
        )
        (1): Sequential(
          (0): Linear(in_features=256, out_features=512, bias=True)
          (1): BatchNorm1d(512, eps=1e-05, momentum=0.1, affine=False, track_running_stats=True)
        )
        (2): Sequential(
          (0): Linear(in_features=512, out_features=128, bias=True)
          (1): BatchNorm1d(128, eps=1e-05, momentum=0.1, affine=False, track_running_stats=True)
        )
        (3): Sequential(
          (0): Linear(in_features=128, out_features=1, bias=True)
          (1): BatchNorm1d(1, eps=1e-05, momentum=0.1, affine=False, track_running_stats=True)
        )
      )
    )
  )
)
[ INFO : 2024-01-18 15:29:18,990 ] - DeepGCCA(
  (model_list): ModuleList(
    (0-2): 3 x MlpNet(
      (layers): ModuleList(
        (0): Sequential(
          (0): Linear(in_features=100, out_features=256, bias=True)
          (1): BatchNorm1d(256, eps=1e-05, momentum=0.1, affine=False, track_running_stats=True)
        )
        (1): Sequential(
          (0): Linear(in_features=256, out_features=512, bias=True)
          (1): BatchNorm1d(512, eps=1e-05, momentum=0.1, affine=False, track_running_stats=True)
        )
        (2): Sequential(
          (0): Linear(in_features=512, out_features=128, bias=True)
          (1): BatchNorm1d(128, eps=1e-05, momentum=0.1, affine=False, track_running_stats=True)
        )
        (3): Sequential(
          (0): Linear(in_features=128, out_features=1, bias=True)
          (1): BatchNorm1d(1, eps=1e-05, momentum=0.1, affine=False, track_running_stats=True)
        )
      )
    )
  )
)
[ INFO : 2024-01-18 15:29:18,990 ] - DeepGCCA(
  (model_list): ModuleList(
    (0-2): 3 x MlpNet(
      (layers): ModuleList(
        (0): Sequential(
          (0): Linear(in_features=100, out_features=256, bias=True)
          (1): BatchNorm1d(256, eps=1e-05, momentum=0.1, affine=False, track_running_stats=True)
        )
        (1): Sequential(
          (0): Linear(in_features=256, out_features=512, bias=True)
          (1): BatchNorm1d(512, eps=1e-05, momentum=0.1, affine=False, track_running_stats=True)
        )
        (2): Sequential(
          (0): Linear(in_features=512, out_features=128, bias=True)
          (1): BatchNorm1d(128, eps=1e-05, momentum=0.1, affine=False, track_running_stats=True)
        )
        (3): Sequential(
          (0): Linear(in_features=128, out_features=1, bias=True)
          (1): BatchNorm1d(1, eps=1e-05, momentum=0.1, affine=False, track_running_stats=True)
        )
      )
    )
  )
)
[ INFO : 2024-01-18 15:29:18,990 ] - DeepGCCA(
  (model_list): ModuleList(
    (0-2): 3 x MlpNet(
      (layers): ModuleList(
        (0): Sequential(
          (0): Linear(in_features=100, out_features=256, bias=True)
          (1): BatchNorm1d(256, eps=1e-05, momentum=0.1, affine=False, track_running_stats=True)
        )
        (1): Sequential(
          (0): Linear(in_features=256, out_features=512, bias=True)
          (1): BatchNorm1d(512, eps=1e-05, momentum=0.1, affine=False, track_running_stats=True)
        )
        (2): Sequential(
          (0): Linear(in_features=512, out_features=128, bias=True)
          (1): BatchNorm1d(128, eps=1e-05, momentum=0.1, affine=False, track_running_stats=True)
        )
        (3): Sequential(
          (0): Linear(in_features=128, out_features=1, bias=True)
          (1): BatchNorm1d(1, eps=1e-05, momentum=0.1, affine=False, track_running_stats=True)
        )
      )
    )
  )
)
[ INFO : 2024-01-18 15:29:18,990 ] - DeepGCCA(
  (model_list): ModuleList(
    (0-2): 3 x MlpNet(
      (layers): ModuleList(
        (0): Sequential(
          (0): Linear(in_features=100, out_features=256, bias=True)
          (1): BatchNorm1d(256, eps=1e-05, momentum=0.1, affine=False, track_running_stats=True)
        )
        (1): Sequential(
          (0): Linear(in_features=256, out_features=512, bias=True)
          (1): BatchNorm1d(512, eps=1e-05, momentum=0.1, affine=False, track_running_stats=True)
        )
        (2): Sequential(
          (0): Linear(in_features=512, out_features=128, bias=True)
          (1): BatchNorm1d(128, eps=1e-05, momentum=0.1, affine=False, track_running_stats=True)
        )
        (3): Sequential(
          (0): Linear(in_features=128, out_features=1, bias=True)
          (1): BatchNorm1d(1, eps=1e-05, momentum=0.1, affine=False, track_running_stats=True)
        )
      )
    )
  )
)
[ INFO : 2024-01-18 15:29:18,990 ] - DeepGCCA(
  (model_list): ModuleList(
    (0-2): 3 x MlpNet(
      (layers): ModuleList(
        (0): Sequential(
          (0): Linear(in_features=100, out_features=256, bias=True)
          (1): BatchNorm1d(256, eps=1e-05, momentum=0.1, affine=False, track_running_stats=True)
        )
        (1): Sequential(
          (0): Linear(in_features=256, out_features=512, bias=True)
          (1): BatchNorm1d(512, eps=1e-05, momentum=0.1, affine=False, track_running_stats=True)
        )
        (2): Sequential(
          (0): Linear(in_features=512, out_features=128, bias=True)
          (1): BatchNorm1d(128, eps=1e-05, momentum=0.1, affine=False, track_running_stats=True)
        )
        (3): Sequential(
          (0): Linear(in_features=128, out_features=1, bias=True)
          (1): BatchNorm1d(1, eps=1e-05, momentum=0.1, affine=False, track_running_stats=True)
        )
      )
    )
  )
)
[ INFO : 2024-01-18 15:29:18,995 ] - Adam (
Parameter Group 0
    amsgrad: False
    betas: (0.9, 0.999)
    capturable: False
    differentiable: False
    eps: 1e-08
    foreach: None
    fused: None
    initial_lr: 0.05
    lr: 0.05
    maximize: False
    weight_decay: 1e-05
)
[ INFO : 2024-01-18 15:29:18,995 ] - Adam (
…
[ INFO : 2024-01-18 15:29:19,058 ] - Epoch 2/2 - time: 0.03 - training_loss: -2.4210
[ INFO : 2024-01-18 15:29:19,058 ] - Epoch 2/2 - time: 0.03 - training_loss: -2.4210
[ INFO : 2024-01-18 15:29:19,058 ] - Epoch 2/2 - time: 0.03 - training_loss: -2.4210
[ INFO : 2024-01-18 15:29:19,058 ] - Epoch 2/2 - time: 0.03 - training_loss: -2.4210
[ INFO : 2024-01-18 15:29:19,058 ] - Epoch 2/2 - time: 0.03 - training_loss: -2.4210
[ INFO : 2024-01-18 15:29:19,058 ] - Epoch 2/2 - time: 0.03 - training_loss: -2.4210
[ INFO : 2024-01-18 15:29:19,090 ] - DeepGCCA(
  (model_list): ModuleList(
    (0-2): 3 x MlpNet(
      (layers): ModuleList(
        (0): Sequential(
          (0): Linear(in_features=100, out_features=256, bias=True)
          (1): BatchNorm1d(256, eps=1e-05, momentum=0.1, affine=False, track_running_stats=True)
        )
        (1): Sequential(
          (0): Linear(in_features=256, out_features=512, bias=True)
          (1): BatchNorm1d(512, eps=1e-05, momentum=0.1, affine=False, track_running_stats=True)
        )
        (2): Sequential(
          (0): Linear(in_features=512, out_features=128, bias=True)
          (1): BatchNorm1d(128, eps=1e-05, momentum=0.1, affine=False, track_running_stats=True)
        )
        (3): Sequential(
          (0): Linear(in_features=128, out_features=1, bias=True)
          (1): BatchNorm1d(1, eps=1e-05, momentum=0.1, affine=False, track_running_stats=True)
        )
      )
    )
  )
)
[ INFO : 2024-01-18 15:29:19,090 ] - DeepGCCA(
  (model_list): ModuleList(
    (0-2): 3 x MlpNet(
      (layers): ModuleList(
        (0): Sequential(
          (0): Linear(in_features=100, out_features=256, bias=True)
          (1): BatchNorm1d(256, eps=1e-05, momentum=0.1, affine=False, track_running_stats=True)
        )
        (1): Sequential(
          (0): Linear(in_features=256, out_features=512, bias=True)
          (1): BatchNorm1d(512, eps=1e-05, momentum=0.1, affine=False, track_running_stats=True)
        )
        (2): Sequential(
          (0): Linear(in_features=512, out_features=128, bias=True)
          (1): BatchNorm1d(128, eps=1e-05, momentum=0.1, affine=False, track_running_stats=True)
        )
        (3): Sequential(
          (0): Linear(in_features=128, out_features=1, bias=True)
          (1): BatchNorm1d(1, eps=1e-05, momentum=0.1, affine=False, track_running_stats=True)
        )
      )
    )
  )
)
[ INFO : 2024-01-18 15:29:19,090 ] - DeepGCCA(
  (model_list): ModuleList(
    (0-2): 3 x MlpNet(
      (layers): ModuleList(
        (0): Sequential(
          (0): Linear(in_features=100, out_features=256, bias=True)
          (1): BatchNorm1d(256, eps=1e-05, momentum=0.1, affine=False, track_running_stats=True)
        )
        (1): Sequential(
          (0): Linear(in_features=256, out_features=512, bias=True)
          (1): BatchNorm1d(512, eps=1e-05, momentum=0.1, affine=False, track_running_stats=True)
        )
        (2): Sequential(
          (0): Linear(in_features=512, out_features=128, bias=True)
          (1): BatchNorm1d(128, eps=1e-05, momentum=0.1, affine=False, track_running_stats=True)
        )
        (3): Sequential(
          (0): Linear(in_features=128, out_features=1, bias=True)
          (1): BatchNorm1d(1, eps=1e-05, momentum=0.1, affine=False, track_running_stats=True)
        )
      )
    )
  )
)
[ INFO : 2024-01-18 15:29:19,090 ] - DeepGCCA(
  (model_list): ModuleList(
    (0-2): 3 x MlpNet(
      (layers): ModuleList(
        (0): Sequential(
          (0): Linear(in_features=100, out_features=256, bias=True)
          (1): BatchNorm1d(256, eps=1e-05, momentum=0.1, affine=False, track_running_stats=True)
        )
        (1): Sequential(
          (0): Linear(in_features=256, out_features=512, bias=True)
          (1): BatchNorm1d(512, eps=1e-05, momentum=0.1, affine=False, track_running_stats=True)
        )
        (2): Sequential(
          (0): Linear(in_features=512, out_features=128, bias=True)
          (1): BatchNorm1d(128, eps=1e-05, momentum=0.1, affine=False, track_running_stats=True)
        )
        (3): Sequential(
          (0): Linear(in_features=128, out_features=1, bias=True)
          (1): BatchNorm1d(1, eps=1e-05, momentum=0.1, affine=False, track_running_stats=True)
        )
      )
    )
  )
)
[ INFO : 2024-01-18 15:29:19,090 ] - DeepGCCA(
  (model_list): ModuleList(
    (0-2): 3 x MlpNet(
      (layers): ModuleList(
        (0): Sequential(
          (0): Linear(in_features=100, out_features=256, bias=True)
          (1): BatchNorm1d(256, eps=1e-05, momentum=0.1, affine=False, track_running_stats=True)
        )
        (1): Sequential(
          (0): Linear(in_features=256, out_features=512, bias=True)
          (1): BatchNorm1d(512, eps=1e-05, momentum=0.1, affine=False, track_running_stats=True)
        )
        (2): Sequential(
          (0): Linear(in_features=512, out_features=128, bias=True)
          (1): BatchNorm1d(128, eps=1e-05, momentum=0.1, affine=False, track_running_stats=True)
        )
        (3): Sequential(
          (0): Linear(in_features=128, out_features=1, bias=True)
          (1): BatchNorm1d(1, eps=1e-05, momentum=0.1, affine=False, track_running_stats=True)
        )
      )
    )
  )
)
[ INFO : 2024-01-18 15:29:19,090 ] - DeepGCCA(
  (model_list): ModuleList(
    (0-2): 3 x MlpNet(
      (layers): ModuleList(
        (0): Sequential(
          (0): Linear(in_features=100, out_features=256, bias=True)
          (1): BatchNorm1d(256, eps=1e-05, momentum=0.1, affine=False, track_running_stats=True)
        )
        (1): Sequential(
          (0): Linear(in_features=256, out_features=512, bias=True)
          (1): BatchNorm1d(512, eps=1e-05, momentum=0.1, affine=False, track_running_stats=True)
        )
        (2): Sequential(
          (0): Linear(in_features=512, out_features=128, bias=True)
          (1): BatchNorm1d(128, eps=1e-05, momentum=0.1, affine=False, track_running_stats=True)
        )
        (3): Sequential(
          (0): Linear(in_features=128, out_features=1, bias=True)
          (1): BatchNorm1d(1, eps=1e-05, momentum=0.1, affine=False, track_running_stats=True)
        )
      )
    )
  )
)
[ INFO : 2024-01-18 15:29:19,090 ] - DeepGCCA(
  (model_list): ModuleList(
    (0-2): 3 x MlpNet(
      (layers): ModuleList(
        (0): Sequential(
          (0): Linear(in_features=100, out_features=256, bias=True)
          (1): BatchNorm1d(256, eps=1e-05, momentum=0.1, affine=False, track_running_stats=True)
        )
        (1): Sequential(
          (0): Linear(in_features=256, out_features=512, bias=True)
          (1): BatchNorm1d(512, eps=1e-05, momentum=0.1, affine=False, track_running_stats=True)
        )
        (2): Sequential(
          (0): Linear(in_features=512, out_features=128, bias=True)
          (1): BatchNorm1d(128, eps=1e-05, momentum=0.1, affine=False, track_running_stats=True)
        )
        (3): Sequential(
          (0): Linear(in_features=128, out_features=1, bias=True)
          (1): BatchNorm1d(1, eps=1e-05, momentum=0.1, affine=False, track_running_stats=True)
        )
      )
    )
  )
)
[ INFO : 2024-01-18 15:29:19,090 ] - DeepGCCA(
  (model_list): ModuleList(
    (0-2): 3 x MlpNet(
      (layers): ModuleList(
        (0): Sequential(
          (0): Linear(in_features=100, out_features=256, bias=True)
          (1): BatchNorm1d(256, eps=1e-05, momentum=0.1, affine=False, track_running_stats=True)
        )
        (1): Sequential(
          (0): Linear(in_features=256, out_features=512, bias=True)
          (1): BatchNorm1d(512, eps=1e-05, momentum=0.1, affine=False, track_running_stats=True)
        )
        (2): Sequential(
          (0): Linear(in_features=512, out_features=128, bias=True)
          (1): BatchNorm1d(128, eps=1e-05, momentum=0.1, affine=False, track_running_stats=True)
        )
        (3): Sequential(
          (0): Linear(in_features=128, out_features=1, bias=True)
          (1): BatchNorm1d(1, eps=1e-05, momentum=0.1, affine=False, track_running_stats=True)
        )
      )
    )
  )
)
[ INFO : 2024-01-18 15:29:19,090 ] - DeepGCCA(
  (model_list): ModuleList(
    (0-2): 3 x MlpNet(
      (layers): ModuleList(
        (0): Sequential(
          (0): Linear(in_features=100, out_features=256, bias=True)
          (1): BatchNorm1d(256, eps=1e-05, momentum=0.1, affine=False, track_running_stats=True)
        )
        (1): Sequential(
          (0): Linear(in_features=256, out_features=512, bias=True)
          (1): BatchNorm1d(512, eps=1e-05, momentum=0.1, affine=False, track_running_stats=True)
        )
        (2): Sequential(
          (0): Linear(in_features=512, out_features=128, bias=True)
          (1): BatchNorm1d(128, eps=1e-05, momentum=0.1, affine=False, track_running_stats=True)
        )
        (3): Sequential(
          (0): Linear(in_features=128, out_features=1, bias=True)
          (1): BatchNorm1d(1, eps=1e-05, momentum=0.1, affine=False, track_running_stats=True)
        )
      )
    )
  )
)
[ INFO : 2024-01-18 15:29:19,090 ] - DeepGCCA(
  (model_list): ModuleList(
    (0-2): 3 x MlpNet(
      (layers): ModuleList(
        (0): Sequential(
          (0): Linear(in_features=100, out_features=256, bias=True)
          (1): BatchNorm1d(256, eps=1e-05, momentum=0.1, affine=False, track_running_stats=True)
        )
        (1): Sequential(
          (0): Linear(in_features=256, out_features=512, bias=True)
          (1): BatchNorm1d(512, eps=1e-05, momentum=0.1, affine=False, track_running_stats=True)
        )
        (2): Sequential(
          (0): Linear(in_features=512, out_features=128, bias=True)
          (1): BatchNorm1d(128, eps=1e-05, momentum=0.1, affine=False, track_running_stats=True)
        )
        (3): Sequential(
          (0): Linear(in_features=128, out_features=1, bias=True)
          (1): BatchNorm1d(1, eps=1e-05, momentum=0.1, affine=False, track_running_stats=True)
        )
      )
    )
  )
)
[ INFO : 2024-01-18 15:29:19,090 ] - DeepGCCA(
  (model_list): ModuleList(
    (0-2): 3 x MlpNet(
      (layers): ModuleList(
        (0): Sequential(
          (0): Linear(in_features=100, out_features=256, bias=True)
          (1): BatchNorm1d(256, eps=1e-05, momentum=0.1, affine=False, track_running_stats=True)
        )
        (1): Sequential(
          (0): Linear(in_features=256, out_features=512, bias=True)
          (1): BatchNorm1d(512, eps=1e-05, momentum=0.1, affine=False, track_running_stats=True)
        )
        (2): Sequential(
          (0): Linear(in_features=512, out_features=128, bias=True)
          (1): BatchNorm1d(128, eps=1e-05, momentum=0.1, affine=False, track_running_stats=True)
        )
        (3): Sequential(
          (0): Linear(in_features=128, out_features=1, bias=True)
          (1): BatchNorm1d(1, eps=1e-05, momentum=0.1, affine=False, track_running_stats=True)
        )
      )
    )
  )
)
[ INFO : 2024-01-18 15:29:19,090 ] - DeepGCCA(
  (model_list): ModuleList(
    (0-2): 3 x MlpNet(
      (layers): ModuleList(
        (0): Sequential(
          (0): Linear(in_features=100, out_features=256, bias=True)
          (1): BatchNorm1d(256, eps=1e-05, momentum=0.1, affine=False, track_running_stats=True)
        )
        (1): Sequential(
          (0): Linear(in_features=256, out_features=512, bias=True)
          (1): BatchNorm1d(512, eps=1e-05, momentum=0.1, affine=False, track_running_stats=True)
        )
        (2): Sequential(
          (0): Linear(in_features=512, out_features=128, bias=True)
          (1): BatchNorm1d(128, eps=1e-05, momentum=0.1, affine=False, track_running_stats=True)
        )
        (3): Sequential(
          (0): Linear(in_features=128, out_features=1, bias=True)
          (1): BatchNorm1d(1, eps=1e-05, momentum=0.1, affine=False, track_running_stats=True)
        )
      )
    )
  )
)
[ INFO : 2024-01-18 15:29:19,095 ] - Adam (
Parameter Group 0
    amsgrad: False
    betas: (0.9, 0.999)
    capturable: False
    differentiable: False
    eps: 1e-08
    foreach: None
    fused: None
    initial_lr: 0.05
    lr: 0.05
    maximize: False
    weight_decay: 1e-05
)
[ INFO : 2024-01-18 15:29:19,095 ] - Adam (
…
[ INFO : 2024-01-18 15:29:19,158 ] - Epoch 2/2 - time: 0.03 - training_loss: -2.8587
[ INFO : 2024-01-18 15:29:19,158 ] - Epoch 2/2 - time: 0.03 - training_loss: -2.8587
[ INFO : 2024-01-18 15:29:19,158 ] - Epoch 2/2 - time: 0.03 - training_loss: -2.8587
[ INFO : 2024-01-18 15:29:19,158 ] - Epoch 2/2 - time: 0.03 - training_loss: -2.8587
[ INFO : 2024-01-18 15:29:19,158 ] - Epoch 2/2 - time: 0.03 - training_loss: -2.8587
[ INFO : 2024-01-18 15:29:19,158 ] - Epoch 2/2 - time: 0.03 - training_loss: -2.8587
[ INFO : 2024-01-18 15:29:19,193 ] - DeepGCCA(
  (model_list): ModuleList(
    (0-2): 3 x MlpNet(
      (layers): ModuleList(
        (0): Sequential(
          (0): Linear(in_features=100, out_features=256, bias=True)
          (1): BatchNorm1d(256, eps=1e-05, momentum=0.1, affine=False, track_running_stats=True)
        )
        (1): Sequential(
          (0): Linear(in_features=256, out_features=512, bias=True)
          (1): BatchNorm1d(512, eps=1e-05, momentum=0.1, affine=False, track_running_stats=True)
        )
        (2): Sequential(
          (0): Linear(in_features=512, out_features=128, bias=True)
          (1): BatchNorm1d(128, eps=1e-05, momentum=0.1, affine=False, track_running_stats=True)
        )
        (3): Sequential(
          (0): Linear(in_features=128, out_features=1, bias=True)
          (1): BatchNorm1d(1, eps=1e-05, momentum=0.1, affine=False, track_running_stats=True)
        )
      )
    )
  )
)
[ INFO : 2024-01-18 15:29:19,193 ] - DeepGCCA(
  (model_list): ModuleList(
    (0-2): 3 x MlpNet(
      (layers): ModuleList(
        (0): Sequential(
          (0): Linear(in_features=100, out_features=256, bias=True)
          (1): BatchNorm1d(256, eps=1e-05, momentum=0.1, affine=False, track_running_stats=True)
        )
        (1): Sequential(
          (0): Linear(in_features=256, out_features=512, bias=True)
          (1): BatchNorm1d(512, eps=1e-05, momentum=0.1, affine=False, track_running_stats=True)
        )
        (2): Sequential(
          (0): Linear(in_features=512, out_features=128, bias=True)
          (1): BatchNorm1d(128, eps=1e-05, momentum=0.1, affine=False, track_running_stats=True)
        )
        (3): Sequential(
          (0): Linear(in_features=128, out_features=1, bias=True)
          (1): BatchNorm1d(1, eps=1e-05, momentum=0.1, affine=False, track_running_stats=True)
        )
      )
    )
  )
)
[ INFO : 2024-01-18 15:29:19,193 ] - DeepGCCA(
  (model_list): ModuleList(
    (0-2): 3 x MlpNet(
      (layers): ModuleList(
        (0): Sequential(
          (0): Linear(in_features=100, out_features=256, bias=True)
          (1): BatchNorm1d(256, eps=1e-05, momentum=0.1, affine=False, track_running_stats=True)
        )
        (1): Sequential(
          (0): Linear(in_features=256, out_features=512, bias=True)
          (1): BatchNorm1d(512, eps=1e-05, momentum=0.1, affine=False, track_running_stats=True)
        )
        (2): Sequential(
          (0): Linear(in_features=512, out_features=128, bias=True)
          (1): BatchNorm1d(128, eps=1e-05, momentum=0.1, affine=False, track_running_stats=True)
        )
        (3): Sequential(
          (0): Linear(in_features=128, out_features=1, bias=True)
          (1): BatchNorm1d(1, eps=1e-05, momentum=0.1, affine=False, track_running_stats=True)
        )
      )
    )
  )
)
[ INFO : 2024-01-18 15:29:19,193 ] - DeepGCCA(
  (model_list): ModuleList(
    (0-2): 3 x MlpNet(
      (layers): ModuleList(
        (0): Sequential(
          (0): Linear(in_features=100, out_features=256, bias=True)
          (1): BatchNorm1d(256, eps=1e-05, momentum=0.1, affine=False, track_running_stats=True)
        )
        (1): Sequential(
          (0): Linear(in_features=256, out_features=512, bias=True)
          (1): BatchNorm1d(512, eps=1e-05, momentum=0.1, affine=False, track_running_stats=True)
        )
        (2): Sequential(
          (0): Linear(in_features=512, out_features=128, bias=True)
          (1): BatchNorm1d(128, eps=1e-05, momentum=0.1, affine=False, track_running_stats=True)
        )
        (3): Sequential(
          (0): Linear(in_features=128, out_features=1, bias=True)
          (1): BatchNorm1d(1, eps=1e-05, momentum=0.1, affine=False, track_running_stats=True)
        )
      )
    )
  )
)
[ INFO : 2024-01-18 15:29:19,193 ] - DeepGCCA(
  (model_list): ModuleList(
    (0-2): 3 x MlpNet(
      (layers): ModuleList(
        (0): Sequential(
          (0): Linear(in_features=100, out_features=256, bias=True)
          (1): BatchNorm1d(256, eps=1e-05, momentum=0.1, affine=False, track_running_stats=True)
        )
        (1): Sequential(
          (0): Linear(in_features=256, out_features=512, bias=True)
          (1): BatchNorm1d(512, eps=1e-05, momentum=0.1, affine=False, track_running_stats=True)
        )
        (2): Sequential(
          (0): Linear(in_features=512, out_features=128, bias=True)
          (1): BatchNorm1d(128, eps=1e-05, momentum=0.1, affine=False, track_running_stats=True)
        )
        (3): Sequential(
          (0): Linear(in_features=128, out_features=1, bias=True)
          (1): BatchNorm1d(1, eps=1e-05, momentum=0.1, affine=False, track_running_stats=True)
        )
      )
    )
  )
)
[ INFO : 2024-01-18 15:29:19,193 ] - DeepGCCA(
  (model_list): ModuleList(
    (0-2): 3 x MlpNet(
      (layers): ModuleList(
        (0): Sequential(
          (0): Linear(in_features=100, out_features=256, bias=True)
          (1): BatchNorm1d(256, eps=1e-05, momentum=0.1, affine=False, track_running_stats=True)
        )
        (1): Sequential(
          (0): Linear(in_features=256, out_features=512, bias=True)
          (1): BatchNorm1d(512, eps=1e-05, momentum=0.1, affine=False, track_running_stats=True)
        )
        (2): Sequential(
          (0): Linear(in_features=512, out_features=128, bias=True)
          (1): BatchNorm1d(128, eps=1e-05, momentum=0.1, affine=False, track_running_stats=True)
        )
        (3): Sequential(
          (0): Linear(in_features=128, out_features=1, bias=True)
          (1): BatchNorm1d(1, eps=1e-05, momentum=0.1, affine=False, track_running_stats=True)
        )
      )
    )
  )
)
[ INFO : 2024-01-18 15:29:19,193 ] - DeepGCCA(
  (model_list): ModuleList(
    (0-2): 3 x MlpNet(
      (layers): ModuleList(
        (0): Sequential(
          (0): Linear(in_features=100, out_features=256, bias=True)
          (1): BatchNorm1d(256, eps=1e-05, momentum=0.1, affine=False, track_running_stats=True)
        )
        (1): Sequential(
          (0): Linear(in_features=256, out_features=512, bias=True)
          (1): BatchNorm1d(512, eps=1e-05, momentum=0.1, affine=False, track_running_stats=True)
        )
        (2): Sequential(
          (0): Linear(in_features=512, out_features=128, bias=True)
          (1): BatchNorm1d(128, eps=1e-05, momentum=0.1, affine=False, track_running_stats=True)
        )
        (3): Sequential(
          (0): Linear(in_features=128, out_features=1, bias=True)
          (1): BatchNorm1d(1, eps=1e-05, momentum=0.1, affine=False, track_running_stats=True)
        )
      )
    )
  )
)
[ INFO : 2024-01-18 15:29:19,193 ] - DeepGCCA(
  (model_list): ModuleList(
    (0-2): 3 x MlpNet(
      (layers): ModuleList(
        (0): Sequential(
          (0): Linear(in_features=100, out_features=256, bias=True)
          (1): BatchNorm1d(256, eps=1e-05, momentum=0.1, affine=False, track_running_stats=True)
        )
        (1): Sequential(
          (0): Linear(in_features=256, out_features=512, bias=True)
          (1): BatchNorm1d(512, eps=1e-05, momentum=0.1, affine=False, track_running_stats=True)
        )
        (2): Sequential(
          (0): Linear(in_features=512, out_features=128, bias=True)
          (1): BatchNorm1d(128, eps=1e-05, momentum=0.1, affine=False, track_running_stats=True)
        )
        (3): Sequential(
          (0): Linear(in_features=128, out_features=1, bias=True)
          (1): BatchNorm1d(1, eps=1e-05, momentum=0.1, affine=False, track_running_stats=True)
        )
      )
    )
  )
)
[ INFO : 2024-01-18 15:29:19,193 ] - DeepGCCA(
  (model_list): ModuleList(
    (0-2): 3 x MlpNet(
      (layers): ModuleList(
        (0): Sequential(
          (0): Linear(in_features=100, out_features=256, bias=True)
          (1): BatchNorm1d(256, eps=1e-05, momentum=0.1, affine=False, track_running_stats=True)
        )
        (1): Sequential(
          (0): Linear(in_features=256, out_features=512, bias=True)
          (1): BatchNorm1d(512, eps=1e-05, momentum=0.1, affine=False, track_running_stats=True)
        )
        (2): Sequential(
          (0): Linear(in_features=512, out_features=128, bias=True)
          (1): BatchNorm1d(128, eps=1e-05, momentum=0.1, affine=False, track_running_stats=True)
        )
        (3): Sequential(
          (0): Linear(in_features=128, out_features=1, bias=True)
          (1): BatchNorm1d(1, eps=1e-05, momentum=0.1, affine=False, track_running_stats=True)
        )
      )
    )
  )
)
[ INFO : 2024-01-18 15:29:19,193 ] - DeepGCCA(
  (model_list): ModuleList(
    (0-2): 3 x MlpNet(
      (layers): ModuleList(
        (0): Sequential(
          (0): Linear(in_features=100, out_features=256, bias=True)
          (1): BatchNorm1d(256, eps=1e-05, momentum=0.1, affine=False, track_running_stats=True)
        )
        (1): Sequential(
          (0): Linear(in_features=256, out_features=512, bias=True)
          (1): BatchNorm1d(512, eps=1e-05, momentum=0.1, affine=False, track_running_stats=True)
        )
        (2): Sequential(
          (0): Linear(in_features=512, out_features=128, bias=True)
          (1): BatchNorm1d(128, eps=1e-05, momentum=0.1, affine=False, track_running_stats=True)
        )
        (3): Sequential(
          (0): Linear(in_features=128, out_features=1, bias=True)
          (1): BatchNorm1d(1, eps=1e-05, momentum=0.1, affine=False, track_running_stats=True)
        )
      )
    )
  )
)
[ INFO : 2024-01-18 15:29:19,193 ] - DeepGCCA(
  (model_list): ModuleList(
    (0-2): 3 x MlpNet(
      (layers): ModuleList(
        (0): Sequential(
          (0): Linear(in_features=100, out_features=256, bias=True)
          (1): BatchNorm1d(256, eps=1e-05, momentum=0.1, affine=False, track_running_stats=True)
        )
        (1): Sequential(
          (0): Linear(in_features=256, out_features=512, bias=True)
          (1): BatchNorm1d(512, eps=1e-05, momentum=0.1, affine=False, track_running_stats=True)
        )
        (2): Sequential(
          (0): Linear(in_features=512, out_features=128, bias=True)
          (1): BatchNorm1d(128, eps=1e-05, momentum=0.1, affine=False, track_running_stats=True)
        )
        (3): Sequential(
          (0): Linear(in_features=128, out_features=1, bias=True)
          (1): BatchNorm1d(1, eps=1e-05, momentum=0.1, affine=False, track_running_stats=True)
        )
      )
    )
  )
)
[ INFO : 2024-01-18 15:29:19,193 ] - DeepGCCA(
  (model_list): ModuleList(
    (0-2): 3 x MlpNet(
      (layers): ModuleList(
        (0): Sequential(
          (0): Linear(in_features=100, out_features=256, bias=True)
          (1): BatchNorm1d(256, eps=1e-05, momentum=0.1, affine=False, track_running_stats=True)
        )
        (1): Sequential(
          (0): Linear(in_features=256, out_features=512, bias=True)
          (1): BatchNorm1d(512, eps=1e-05, momentum=0.1, affine=False, track_running_stats=True)
        )
        (2): Sequential(
          (0): Linear(in_features=512, out_features=128, bias=True)
          (1): BatchNorm1d(128, eps=1e-05, momentum=0.1, affine=False, track_running_stats=True)
        )
        (3): Sequential(
          (0): Linear(in_features=128, out_features=1, bias=True)
          (1): BatchNorm1d(1, eps=1e-05, momentum=0.1, affine=False, track_running_stats=True)
        )
      )
    )
  )
)
[ INFO : 2024-01-18 15:29:19,193 ] - DeepGCCA(
  (model_list): ModuleList(
    (0-2): 3 x MlpNet(
      (layers): ModuleList(
        (0): Sequential(
          (0): Linear(in_features=100, out_features=256, bias=True)
          (1): BatchNorm1d(256, eps=1e-05, momentum=0.1, affine=False, track_running_stats=True)
        )
        (1): Sequential(
          (0): Linear(in_features=256, out_features=512, bias=True)
          (1): BatchNorm1d(512, eps=1e-05, momentum=0.1, affine=False, track_running_stats=True)
        )
        (2): Sequential(
          (0): Linear(in_features=512, out_features=128, bias=True)
          (1): BatchNorm1d(128, eps=1e-05, momentum=0.1, affine=False, track_running_stats=True)
        )
        (3): Sequential(
          (0): Linear(in_features=128, out_features=1, bias=True)
          (1): BatchNorm1d(1, eps=1e-05, momentum=0.1, affine=False, track_running_stats=True)
        )
      )
    )
  )
)
[ INFO : 2024-01-18 15:29:19,199 ] - Adam (
Parameter Group 0
    amsgrad: False
    betas: (0.9, 0.999)
    capturable: False
    differentiable: False
    eps: 1e-08
    foreach: None
    fused: None
    initial_lr: 0.05
    lr: 0.05
    maximize: False
    weight_decay: 1e-05
)
[ INFO : 2024-01-18 15:29:19,199 ] - Adam (
…
[ INFO : 2024-01-18 15:29:19,261 ] - Epoch 2/2 - time: 0.03 - training_loss: -2.6395
[ INFO : 2024-01-18 15:29:19,261 ] - Epoch 2/2 - time: 0.03 - training_loss: -2.6395
[ INFO : 2024-01-18 15:29:19,261 ] - Epoch 2/2 - time: 0.03 - training_loss: -2.6395
[ INFO : 2024-01-18 15:29:19,261 ] - Epoch 2/2 - time: 0.03 - training_loss: -2.6395
[ INFO : 2024-01-18 15:29:19,261 ] - Epoch 2/2 - time: 0.03 - training_loss: -2.6395
[ INFO : 2024-01-18 15:29:19,261 ] - Epoch 2/2 - time: 0.03 - training_loss: -2.6395
[ INFO : 2024-01-18 15:29:19,293 ] - DeepGCCA(
  (model_list): ModuleList(
    (0-2): 3 x MlpNet(
      (layers): ModuleList(
        (0): Sequential(
          (0): Linear(in_features=100, out_features=256, bias=True)
          (1): BatchNorm1d(256, eps=1e-05, momentum=0.1, affine=False, track_running_stats=True)
        )
        (1): Sequential(
…
        (0): Sequential(
          (0): Linear(in_features=100, out_features=256, bias=True)
          (1): BatchNorm1d(256, eps=1e-05, momentum=0.1, affine=False, track_running_stats=True)
        )
        (1): Sequential(
          (0): Linear(in_features=256, out_features=512, bias=True)
          (1): BatchNorm1d(512, eps=1e-05, momentum=0.1, affine=False, track_running_stats=True)
        )
        (2): Sequential(
          (0): Linear(in_features=512, out_features=128, bias=True)
          (1): BatchNorm1d(128, eps=1e-05, momentum=0.1, affine=False, track_running_stats=True)
        )
        (3): Sequential(
          (0): Linear(in_features=128, out_features=1, bias=True)
          (1): BatchNorm1d(1, eps=1e-05, momentum=0.1, affine=False, track_running_stats=True)
        )
      )
    )
  )
)
[ INFO : 2024-01-18 15:29:23,221 ] - DeepGCCA(
  (model_list): ModuleList(
    (0-2): 3 x MlpNet(
      (layers): ModuleList(
        (0): Sequential(
          (0): Linear(in_features=100, out_features=256, bias=True)
          (1): BatchNorm1d(256, eps=1e-05, momentum=0.1, affine=False, track_running_stats=True)
        )
        (1): Sequential(
          (0): Linear(in_features=256, out_features=512, bias=True)
          (1): BatchNorm1d(512, eps=1e-05, momentum=0.1, affine=False, track_running_stats=True)
        )
        (2): Sequential(
          (0): Linear(in_features=512, out_features=128, bias=True)
          (1): BatchNorm1d(128, eps=1e-05, momentum=0.1, affine=False, track_running_stats=True)
        )
        (3): Sequential(
          (0): Linear(in_features=128, out_features=1, bias=True)
          (1): BatchNorm1d(1, eps=1e-05, momentum=0.1, affine=False, track_running_stats=True)
        )
      )
    )
  )
)
[ INFO : 2024-01-18 15:29:23,236 ] - Adam (
Parameter Group 0
    amsgrad: False
    betas: (0.9, 0.999)
    capturable: False
    differentiable: False
    eps: 1e-08
    foreach: None
    fused: None
    initial_lr: 0.05
    lr: 0.05
    maximize: False
    weight_decay: 1e-05
)
[ INFO : 2024-01-18 15:29:23,236 ] - Adam (
…
[ INFO : 2024-01-18 15:29:23,303 ] - Epoch 2/2 - time: 0.03 - training_loss: -2.2349
[ INFO : 2024-01-18 15:29:23,303 ] - Epoch 2/2 - time: 0.03 - training_loss: -2.2349
[ INFO : 2024-01-18 15:29:23,303 ] - Epoch 2/2 - time: 0.03 - training_loss: -2.2349
[ INFO : 2024-01-18 15:29:23,303 ] - Epoch 2/2 - time: 0.03 - training_loss: -2.2349
[ INFO : 2024-01-18 15:29:23,303 ] - Epoch 2/2 - time: 0.03 - training_loss: -2.2349
[ INFO : 2024-01-18 15:29:23,303 ] - Epoch 2/2 - time: 0.03 - training_loss: -2.2349
[ INFO : 2024-01-18 15:29:23,339 ] - DeepGCCA(
  (model_list): ModuleList(
    (0-2): 3 x MlpNet(
      (layers): ModuleList(
        (0): Sequential(
          (0): Linear(in_features=100, out_features=256, bias=True)
          (1): BatchNorm1d(256, eps=1e-05, momentum=0.1, affine=False, track_running_stats=True)
        )
        (1): Sequential(
          (0): Linear(in_features=256, out_features=512, bias=True)
          (1): BatchNorm1d(512, eps=1e-05, momentum=0.1, affine=False, track_running_stats=True)
        )
        (2): Sequential(
          (0): Linear(in_features=512, out_features=128, bias=True)
          (1): BatchNorm1d(128, eps=1e-05, momentum=0.1, affine=False, track_running_stats=True)
        )
        (3): Sequential(
          (0): Linear(in_features=128, out_features=1, bias=True)
          (1): BatchNorm1d(1, eps=1e-05, momentum=0.1, affine=False, track_running_stats=True)
        )
      )
    )
  )
)
[ INFO : 2024-01-18 15:29:23,339 ] - DeepGCCA(
  (model_list): ModuleList(
    (0-2): 3 x MlpNet(
      (layers): ModuleList(
        (0): Sequential(
          (0): Linear(in_features=100, out_features=256, bias=True)
          (1): BatchNorm1d(256, eps=1e-05, momentum=0.1, affine=False, track_running_stats=True)
        )
        (1): Sequential(
          (0): Linear(in_features=256, out_features=512, bias=True)
          (1): BatchNorm1d(512, eps=1e-05, momentum=0.1, affine=False, track_running_stats=True)
        )
        (2): Sequential(
          (0): Linear(in_features=512, out_features=128, bias=True)
          (1): BatchNorm1d(128, eps=1e-05, momentum=0.1, affine=False, track_running_stats=True)
        )
        (3): Sequential(
          (0): Linear(in_features=128, out_features=1, bias=True)
          (1): BatchNorm1d(1, eps=1e-05, momentum=0.1, affine=False, track_running_stats=True)
        )
      )
    )
  )
)
[ INFO : 2024-01-18 15:29:23,339 ] - DeepGCCA(
  (model_list): ModuleList(
    (0-2): 3 x MlpNet(
      (layers): ModuleList(
        (0): Sequential(
          (0): Linear(in_features=100, out_features=256, bias=True)
          (1): BatchNorm1d(256, eps=1e-05, momentum=0.1, affine=False, track_running_stats=True)
        )
        (1): Sequential(
          (0): Linear(in_features=256, out_features=512, bias=True)
          (1): BatchNorm1d(512, eps=1e-05, momentum=0.1, affine=False, track_running_stats=True)
        )
        (2): Sequential(
          (0): Linear(in_features=512, out_features=128, bias=True)
          (1): BatchNorm1d(128, eps=1e-05, momentum=0.1, affine=False, track_running_stats=True)
        )
        (3): Sequential(
          (0): Linear(in_features=128, out_features=1, bias=True)
          (1): BatchNorm1d(1, eps=1e-05, momentum=0.1, affine=False, track_running_stats=True)
        )
      )
    )
  )
)
[ INFO : 2024-01-18 15:29:23,339 ] - DeepGCCA(
  (model_list): ModuleList(
    (0-2): 3 x MlpNet(
      (layers): ModuleList(
        (0): Sequential(
          (0): Linear(in_features=100, out_features=256, bias=True)
          (1): BatchNorm1d(256, eps=1e-05, momentum=0.1, affine=False, track_running_stats=True)
        )
        (1): Sequential(
          (0): Linear(in_features=256, out_features=512, bias=True)
          (1): BatchNorm1d(512, eps=1e-05, momentum=0.1, affine=False, track_running_stats=True)
        )
        (2): Sequential(
          (0): Linear(in_features=512, out_features=128, bias=True)
          (1): BatchNorm1d(128, eps=1e-05, momentum=0.1, affine=False, track_running_stats=True)
        )
        (3): Sequential(
          (0): Linear(in_features=128, out_features=1, bias=True)
          (1): BatchNorm1d(1, eps=1e-05, momentum=0.1, affine=False, track_running_stats=True)
        )
      )
    )
  )
)
[ INFO : 2024-01-18 15:29:23,339 ] - DeepGCCA(
  (model_list): ModuleList(
    (0-2): 3 x MlpNet(
      (layers): ModuleList(
        (0): Sequential(
          (0): Linear(in_features=100, out_features=256, bias=True)
          (1): BatchNorm1d(256, eps=1e-05, momentum=0.1, affine=False, track_running_stats=True)
        )
        (1): Sequential(
          (0): Linear(in_features=256, out_features=512, bias=True)
          (1): BatchNorm1d(512, eps=1e-05, momentum=0.1, affine=False, track_running_stats=True)
        )
        (2): Sequential(
          (0): Linear(in_features=512, out_features=128, bias=True)
          (1): BatchNorm1d(128, eps=1e-05, momentum=0.1, affine=False, track_running_stats=True)
        )
        (3): Sequential(
          (0): Linear(in_features=128, out_features=1, bias=True)
          (1): BatchNorm1d(1, eps=1e-05, momentum=0.1, affine=False, track_running_stats=True)
        )
      )
    )
  )
)
[ INFO : 2024-01-18 15:29:23,339 ] - DeepGCCA(
  (model_list): ModuleList(
    (0-2): 3 x MlpNet(
      (layers): ModuleList(
        (0): Sequential(
          (0): Linear(in_features=100, out_features=256, bias=True)
          (1): BatchNorm1d(256, eps=1e-05, momentum=0.1, affine=False, track_running_stats=True)
        )
        (1): Sequential(
          (0): Linear(in_features=256, out_features=512, bias=True)
          (1): BatchNorm1d(512, eps=1e-05, momentum=0.1, affine=False, track_running_stats=True)
        )
        (2): Sequential(
          (0): Linear(in_features=512, out_features=128, bias=True)
          (1): BatchNorm1d(128, eps=1e-05, momentum=0.1, affine=False, track_running_stats=True)
        )
        (3): Sequential(
          (0): Linear(in_features=128, out_features=1, bias=True)
          (1): BatchNorm1d(1, eps=1e-05, momentum=0.1, affine=False, track_running_stats=True)
        )
      )
    )
  )
)
[ INFO : 2024-01-18 15:29:23,339 ] - DeepGCCA(
  (model_list): ModuleList(
    (0-2): 3 x MlpNet(
      (layers): ModuleList(
        (0): Sequential(
          (0): Linear(in_features=100, out_features=256, bias=True)
          (1): BatchNorm1d(256, eps=1e-05, momentum=0.1, affine=False, track_running_stats=True)
        )
        (1): Sequential(
          (0): Linear(in_features=256, out_features=512, bias=True)
          (1): BatchNorm1d(512, eps=1e-05, momentum=0.1, affine=False, track_running_stats=True)
        )
        (2): Sequential(
          (0): Linear(in_features=512, out_features=128, bias=True)
          (1): BatchNorm1d(128, eps=1e-05, momentum=0.1, affine=False, track_running_stats=True)
        )
        (3): Sequential(
          (0): Linear(in_features=128, out_features=1, bias=True)
          (1): BatchNorm1d(1, eps=1e-05, momentum=0.1, affine=False, track_running_stats=True)
        )
      )
    )
  )
)
[ INFO : 2024-01-18 15:29:23,339 ] - DeepGCCA(
  (model_list): ModuleList(
    (0-2): 3 x MlpNet(
      (layers): ModuleList(
        (0): Sequential(
          (0): Linear(in_features=100, out_features=256, bias=True)
          (1): BatchNorm1d(256, eps=1e-05, momentum=0.1, affine=False, track_running_stats=True)
        )
        (1): Sequential(
          (0): Linear(in_features=256, out_features=512, bias=True)
          (1): BatchNorm1d(512, eps=1e-05, momentum=0.1, affine=False, track_running_stats=True)
        )
        (2): Sequential(
          (0): Linear(in_features=512, out_features=128, bias=True)
          (1): BatchNorm1d(128, eps=1e-05, momentum=0.1, affine=False, track_running_stats=True)
        )
        (3): Sequential(
          (0): Linear(in_features=128, out_features=1, bias=True)
          (1): BatchNorm1d(1, eps=1e-05, momentum=0.1, affine=False, track_running_stats=True)
        )
      )
    )
  )
)
[ INFO : 2024-01-18 15:29:23,339 ] - DeepGCCA(
  (model_list): ModuleList(
    (0-2): 3 x MlpNet(
      (layers): ModuleList(
        (0): Sequential(
          (0): Linear(in_features=100, out_features=256, bias=True)
          (1): BatchNorm1d(256, eps=1e-05, momentum=0.1, affine=False, track_running_stats=True)
        )
        (1): Sequential(
          (0): Linear(in_features=256, out_features=512, bias=True)
          (1): BatchNorm1d(512, eps=1e-05, momentum=0.1, affine=False, track_running_stats=True)
        )
        (2): Sequential(
          (0): Linear(in_features=512, out_features=128, bias=True)
          (1): BatchNorm1d(128, eps=1e-05, momentum=0.1, affine=False, track_running_stats=True)
        )
        (3): Sequential(
          (0): Linear(in_features=128, out_features=1, bias=True)
          (1): BatchNorm1d(1, eps=1e-05, momentum=0.1, affine=False, track_running_stats=True)
        )
      )
    )
  )
)
[ INFO : 2024-01-18 15:29:23,339 ] - DeepGCCA(
  (model_list): ModuleList(
    (0-2): 3 x MlpNet(
      (layers): ModuleList(
        (0): Sequential(
          (0): Linear(in_features=100, out_features=256, bias=True)
          (1): BatchNorm1d(256, eps=1e-05, momentum=0.1, affine=False, track_running_stats=True)
        )
        (1): Sequential(
          (0): Linear(in_features=256, out_features=512, bias=True)
          (1): BatchNorm1d(512, eps=1e-05, momentum=0.1, affine=False, track_running_stats=True)
        )
        (2): Sequential(
          (0): Linear(in_features=512, out_features=128, bias=True)
          (1): BatchNorm1d(128, eps=1e-05, momentum=0.1, affine=False, track_running_stats=True)
        )
        (3): Sequential(
          (0): Linear(in_features=128, out_features=1, bias=True)
          (1): BatchNorm1d(1, eps=1e-05, momentum=0.1, affine=False, track_running_stats=True)
        )
      )
    )
  )
)
[ INFO : 2024-01-18 15:29:23,339 ] - DeepGCCA(
  (model_list): ModuleList(
    (0-2): 3 x MlpNet(
      (layers): ModuleList(
        (0): Sequential(
          (0): Linear(in_features=100, out_features=256, bias=True)
          (1): BatchNorm1d(256, eps=1e-05, momentum=0.1, affine=False, track_running_stats=True)
        )
        (1): Sequential(
          (0): Linear(in_features=256, out_features=512, bias=True)
          (1): BatchNorm1d(512, eps=1e-05, momentum=0.1, affine=False, track_running_stats=True)
        )
        (2): Sequential(
          (0): Linear(in_features=512, out_features=128, bias=True)
          (1): BatchNorm1d(128, eps=1e-05, momentum=0.1, affine=False, track_running_stats=True)
        )
        (3): Sequential(
          (0): Linear(in_features=128, out_features=1, bias=True)
          (1): BatchNorm1d(1, eps=1e-05, momentum=0.1, affine=False, track_running_stats=True)
        )
      )
    )
  )
)
[ INFO : 2024-01-18 15:29:23,339 ] - DeepGCCA(
  (model_list): ModuleList(
    (0-2): 3 x MlpNet(
      (layers): ModuleList(
        (0): Sequential(
          (0): Linear(in_features=100, out_features=256, bias=True)
          (1): BatchNorm1d(256, eps=1e-05, momentum=0.1, affine=False, track_running_stats=True)
        )
        (1): Sequential(
          (0): Linear(in_features=256, out_features=512, bias=True)
          (1): BatchNorm1d(512, eps=1e-05, momentum=0.1, affine=False, track_running_stats=True)
        )
        (2): Sequential(
          (0): Linear(in_features=512, out_features=128, bias=True)
          (1): BatchNorm1d(128, eps=1e-05, momentum=0.1, affine=False, track_running_stats=True)
        )
        (3): Sequential(
          (0): Linear(in_features=128, out_features=1, bias=True)
          (1): BatchNorm1d(1, eps=1e-05, momentum=0.1, affine=False, track_running_stats=True)
        )
      )
    )
  )
)
[ INFO : 2024-01-18 15:29:23,339 ] - DeepGCCA(
  (model_list): ModuleList(
    (0-2): 3 x MlpNet(
      (layers): ModuleList(
        (0): Sequential(
          (0): Linear(in_features=100, out_features=256, bias=True)
          (1): BatchNorm1d(256, eps=1e-05, momentum=0.1, affine=False, track_running_stats=True)
        )
        (1): Sequential(
          (0): Linear(in_features=256, out_features=512, bias=True)
          (1): BatchNorm1d(512, eps=1e-05, momentum=0.1, affine=False, track_running_stats=True)
        )
        (2): Sequential(
          (0): Linear(in_features=512, out_features=128, bias=True)
          (1): BatchNorm1d(128, eps=1e-05, momentum=0.1, affine=False, track_running_stats=True)
        )
        (3): Sequential(
          (0): Linear(in_features=128, out_features=1, bias=True)
          (1): BatchNorm1d(1, eps=1e-05, momentum=0.1, affine=False, track_running_stats=True)
        )
      )
    )
  )
)
[ INFO : 2024-01-18 15:29:23,339 ] - DeepGCCA(
  (model_list): ModuleList(
    (0-2): 3 x MlpNet(
      (layers): ModuleList(
        (0): Sequential(
          (0): Linear(in_features=100, out_features=256, bias=True)
          (1): BatchNorm1d(256, eps=1e-05, momentum=0.1, affine=False, track_running_stats=True)
        )
        (1): Sequential(
          (0): Linear(in_features=256, out_features=512, bias=True)
          (1): BatchNorm1d(512, eps=1e-05, momentum=0.1, affine=False, track_running_stats=True)
        )
        (2): Sequential(
          (0): Linear(in_features=512, out_features=128, bias=True)
          (1): BatchNorm1d(128, eps=1e-05, momentum=0.1, affine=False, track_running_stats=True)
        )
        (3): Sequential(
          (0): Linear(in_features=128, out_features=1, bias=True)
          (1): BatchNorm1d(1, eps=1e-05, momentum=0.1, affine=False, track_running_stats=True)
        )
      )
    )
  )
)
[ INFO : 2024-01-18 15:29:23,339 ] - DeepGCCA(
  (model_list): ModuleList(
    (0-2): 3 x MlpNet(
      (layers): ModuleList(
        (0): Sequential(
          (0): Linear(in_features=100, out_features=256, bias=True)
          (1): BatchNorm1d(256, eps=1e-05, momentum=0.1, affine=False, track_running_stats=True)
        )
        (1): Sequential(
          (0): Linear(in_features=256, out_features=512, bias=True)
          (1): BatchNorm1d(512, eps=1e-05, momentum=0.1, affine=False, track_running_stats=True)
        )
        (2): Sequential(
          (0): Linear(in_features=512, out_features=128, bias=True)
          (1): BatchNorm1d(128, eps=1e-05, momentum=0.1, affine=False, track_running_stats=True)
        )
        (3): Sequential(
          (0): Linear(in_features=128, out_features=1, bias=True)
          (1): BatchNorm1d(1, eps=1e-05, momentum=0.1, affine=False, track_running_stats=True)
        )
      )
    )
  )
)
[ INFO : 2024-01-18 15:29:23,339 ] - DeepGCCA(
  (model_list): ModuleList(
    (0-2): 3 x MlpNet(
      (layers): ModuleList(
        (0): Sequential(
          (0): Linear(in_features=100, out_features=256, bias=True)
          (1): BatchNorm1d(256, eps=1e-05, momentum=0.1, affine=False, track_running_stats=True)
        )
        (1): Sequential(
          (0): Linear(in_features=256, out_features=512, bias=True)
          (1): BatchNorm1d(512, eps=1e-05, momentum=0.1, affine=False, track_running_stats=True)
        )
        (2): Sequential(
          (0): Linear(in_features=512, out_features=128, bias=True)
          (1): BatchNorm1d(128, eps=1e-05, momentum=0.1, affine=False, track_running_stats=True)
        )
        (3): Sequential(
          (0): Linear(in_features=128, out_features=1, bias=True)
          (1): BatchNorm1d(1, eps=1e-05, momentum=0.1, affine=False, track_running_stats=True)
        )
      )
    )
  )
)
[ INFO : 2024-01-18 15:29:23,339 ] - DeepGCCA(
  (model_list): ModuleList(
    (0-2): 3 x MlpNet(
      (layers): ModuleList(
        (0): Sequential(
          (0): Linear(in_features=100, out_features=256, bias=True)
          (1): BatchNorm1d(256, eps=1e-05, momentum=0.1, affine=False, track_running_stats=True)
        )
        (1): Sequential(
          (0): Linear(in_features=256, out_features=512, bias=True)
          (1): BatchNorm1d(512, eps=1e-05, momentum=0.1, affine=False, track_running_stats=True)
        )
        (2): Sequential(
          (0): Linear(in_features=512, out_features=128, bias=True)
          (1): BatchNorm1d(128, eps=1e-05, momentum=0.1, affine=False, track_running_stats=True)
        )
        (3): Sequential(
          (0): Linear(in_features=128, out_features=1, bias=True)
          (1): BatchNorm1d(1, eps=1e-05, momentum=0.1, affine=False, track_running_stats=True)
        )
      )
    )
  )
)
[ INFO : 2024-01-18 15:29:23,339 ] - DeepGCCA(
  (model_list): ModuleList(
    (0-2): 3 x MlpNet(
      (layers): ModuleList(
        (0): Sequential(
          (0): Linear(in_features=100, out_features=256, bias=True)
          (1): BatchNorm1d(256, eps=1e-05, momentum=0.1, affine=False, track_running_stats=True)
        )
        (1): Sequential(
          (0): Linear(in_features=256, out_features=512, bias=True)
          (1): BatchNorm1d(512, eps=1e-05, momentum=0.1, affine=False, track_running_stats=True)
        )
        (2): Sequential(
          (0): Linear(in_features=512, out_features=128, bias=True)
          (1): BatchNorm1d(128, eps=1e-05, momentum=0.1, affine=False, track_running_stats=True)
        )
        (3): Sequential(
          (0): Linear(in_features=128, out_features=1, bias=True)
          (1): BatchNorm1d(1, eps=1e-05, momentum=0.1, affine=False, track_running_stats=True)
        )
      )
    )
  )
)
[ INFO : 2024-01-18 15:29:23,339 ] - DeepGCCA(
  (model_list): ModuleList(
    (0-2): 3 x MlpNet(
      (layers): ModuleList(
        (0): Sequential(
          (0): Linear(in_features=100, out_features=256, bias=True)
          (1): BatchNorm1d(256, eps=1e-05, momentum=0.1, affine=False, track_running_stats=True)
        )
        (1): Sequential(
          (0): Linear(in_features=256, out_features=512, bias=True)
          (1): BatchNorm1d(512, eps=1e-05, momentum=0.1, affine=False, track_running_stats=True)
        )
        (2): Sequential(
          (0): Linear(in_features=512, out_features=128, bias=True)
          (1): BatchNorm1d(128, eps=1e-05, momentum=0.1, affine=False, track_running_stats=True)
        )
        (3): Sequential(
          (0): Linear(in_features=128, out_features=1, bias=True)
          (1): BatchNorm1d(1, eps=1e-05, momentum=0.1, affine=False, track_running_stats=True)
        )
      )
    )
  )
)
[ INFO : 2024-01-18 15:29:23,339 ] - DeepGCCA(
  (model_list): ModuleList(
    (0-2): 3 x MlpNet(
      (layers): ModuleList(
        (0): Sequential(
          (0): Linear(in_features=100, out_features=256, bias=True)
          (1): BatchNorm1d(256, eps=1e-05, momentum=0.1, affine=False, track_running_stats=True)
        )
        (1): Sequential(
          (0): Linear(in_features=256, out_features=512, bias=True)
          (1): BatchNorm1d(512, eps=1e-05, momentum=0.1, affine=False, track_running_stats=True)
        )
        (2): Sequential(
          (0): Linear(in_features=512, out_features=128, bias=True)
          (1): BatchNorm1d(128, eps=1e-05, momentum=0.1, affine=False, track_running_stats=True)
        )
        (3): Sequential(
          (0): Linear(in_features=128, out_features=1, bias=True)
          (1): BatchNorm1d(1, eps=1e-05, momentum=0.1, affine=False, track_running_stats=True)
        )
      )
    )
  )
)
[ INFO : 2024-01-18 15:29:23,339 ] - DeepGCCA(
  (model_list): ModuleList(
    (0-2): 3 x MlpNet(
      (layers): ModuleList(
        (0): Sequential(
          (0): Linear(in_features=100, out_features=256, bias=True)
          (1): BatchNorm1d(256, eps=1e-05, momentum=0.1, affine=False, track_running_stats=True)
        )
        (1): Sequential(
          (0): Linear(in_features=256, out_features=512, bias=True)
          (1): BatchNorm1d(512, eps=1e-05, momentum=0.1, affine=False, track_running_stats=True)
        )
        (2): Sequential(
          (0): Linear(in_features=512, out_features=128, bias=True)
          (1): BatchNorm1d(128, eps=1e-05, momentum=0.1, affine=False, track_running_stats=True)
        )
        (3): Sequential(
          (0): Linear(in_features=128, out_features=1, bias=True)
          (1): BatchNorm1d(1, eps=1e-05, momentum=0.1, affine=False, track_running_stats=True)
        )
      )
    )
  )
)
[ INFO : 2024-01-18 15:29:23,339 ] - DeepGCCA(
  (model_list): ModuleList(
    (0-2): 3 x MlpNet(
      (layers): ModuleList(
        (0): Sequential(
          (0): Linear(in_features=100, out_features=256, bias=True)
          (1): BatchNorm1d(256, eps=1e-05, momentum=0.1, affine=False, track_running_stats=True)
        )
        (1): Sequential(
          (0): Linear(in_features=256, out_features=512, bias=True)
          (1): BatchNorm1d(512, eps=1e-05, momentum=0.1, affine=False, track_running_stats=True)
        )
        (2): Sequential(
          (0): Linear(in_features=512, out_features=128, bias=True)
          (1): BatchNorm1d(128, eps=1e-05, momentum=0.1, affine=False, track_running_stats=True)
        )
        (3): Sequential(
          (0): Linear(in_features=128, out_features=1, bias=True)
          (1): BatchNorm1d(1, eps=1e-05, momentum=0.1, affine=False, track_running_stats=True)
        )
      )
    )
  )
)
[ INFO : 2024-01-18 15:29:23,339 ] - DeepGCCA(
  (model_list): ModuleList(
    (0-2): 3 x MlpNet(
      (layers): ModuleList(
        (0): Sequential(
          (0): Linear(in_features=100, out_features=256, bias=True)
          (1): BatchNorm1d(256, eps=1e-05, momentum=0.1, affine=False, track_running_stats=True)
        )
        (1): Sequential(
          (0): Linear(in_features=256, out_features=512, bias=True)
          (1): BatchNorm1d(512, eps=1e-05, momentum=0.1, affine=False, track_running_stats=True)
        )
        (2): Sequential(
          (0): Linear(in_features=512, out_features=128, bias=True)
          (1): BatchNorm1d(128, eps=1e-05, momentum=0.1, affine=False, track_running_stats=True)
        )
        (3): Sequential(
          (0): Linear(in_features=128, out_features=1, bias=True)
          (1): BatchNorm1d(1, eps=1e-05, momentum=0.1, affine=False, track_running_stats=True)
        )
      )
    )
  )
)
[ INFO : 2024-01-18 15:29:23,339 ] - DeepGCCA(
  (model_list): ModuleList(
    (0-2): 3 x MlpNet(
      (layers): ModuleList(
        (0): Sequential(
          (0): Linear(in_features=100, out_features=256, bias=True)
          (1): BatchNorm1d(256, eps=1e-05, momentum=0.1, affine=False, track_running_stats=True)
        )
        (1): Sequential(
          (0): Linear(in_features=256, out_features=512, bias=True)
          (1): BatchNorm1d(512, eps=1e-05, momentum=0.1, affine=False, track_running_stats=True)
        )
        (2): Sequential(
          (0): Linear(in_features=512, out_features=128, bias=True)
          (1): BatchNorm1d(128, eps=1e-05, momentum=0.1, affine=False, track_running_stats=True)
        )
        (3): Sequential(
          (0): Linear(in_features=128, out_features=1, bias=True)
          (1): BatchNorm1d(1, eps=1e-05, momentum=0.1, affine=False, track_running_stats=True)
        )
      )
    )
  )
)
[ INFO : 2024-01-18 15:29:23,339 ] - DeepGCCA(
  (model_list): ModuleList(
    (0-2): 3 x MlpNet(
      (layers): ModuleList(
        (0): Sequential(
          (0): Linear(in_features=100, out_features=256, bias=True)
          (1): BatchNorm1d(256, eps=1e-05, momentum=0.1, affine=False, track_running_stats=True)
        )
        (1): Sequential(
          (0): Linear(in_features=256, out_features=512, bias=True)
          (1): BatchNorm1d(512, eps=1e-05, momentum=0.1, affine=False, track_running_stats=True)
        )
        (2): Sequential(
          (0): Linear(in_features=512, out_features=128, bias=True)
          (1): BatchNorm1d(128, eps=1e-05, momentum=0.1, affine=False, track_running_stats=True)
        )
        (3): Sequential(
          (0): Linear(in_features=128, out_features=1, bias=True)
          (1): BatchNorm1d(1, eps=1e-05, momentum=0.1, affine=False, track_running_stats=True)
        )
      )
    )
  )
)
[ INFO : 2024-01-18 15:29:23,339 ] - DeepGCCA(
  (model_list): ModuleList(
    (0-2): 3 x MlpNet(
      (layers): ModuleList(
        (0): Sequential(
          (0): Linear(in_features=100, out_features=256, bias=True)
          (1): BatchNorm1d(256, eps=1e-05, momentum=0.1, affine=False, track_running_stats=True)
        )
        (1): Sequential(
          (0): Linear(in_features=256, out_features=512, bias=True)
          (1): BatchNorm1d(512, eps=1e-05, momentum=0.1, affine=False, track_running_stats=True)
        )
        (2): Sequential(
          (0): Linear(in_features=512, out_features=128, bias=True)
          (1): BatchNorm1d(128, eps=1e-05, momentum=0.1, affine=False, track_running_stats=True)
        )
        (3): Sequential(
          (0): Linear(in_features=128, out_features=1, bias=True)
          (1): BatchNorm1d(1, eps=1e-05, momentum=0.1, affine=False, track_running_stats=True)
        )
      )
    )
  )
)
[ INFO : 2024-01-18 15:29:23,339 ] - DeepGCCA(
  (model_list): ModuleList(
    (0-2): 3 x MlpNet(
      (layers): ModuleList(
        (0): Sequential(
          (0): Linear(in_features=100, out_features=256, bias=True)
          (1): BatchNorm1d(256, eps=1e-05, momentum=0.1, affine=False, track_running_stats=True)
        )
        (1): Sequential(
          (0): Linear(in_features=256, out_features=512, bias=True)
          (1): BatchNorm1d(512, eps=1e-05, momentum=0.1, affine=False, track_running_stats=True)
        )
        (2): Sequential(
          (0): Linear(in_features=512, out_features=128, bias=True)
          (1): BatchNorm1d(128, eps=1e-05, momentum=0.1, affine=False, track_running_stats=True)
        )
        (3): Sequential(
          (0): Linear(in_features=128, out_features=1, bias=True)
          (1): BatchNorm1d(1, eps=1e-05, momentum=0.1, affine=False, track_running_stats=True)
        )
      )
    )
  )
)
[ INFO : 2024-01-18 15:29:23,339 ] - DeepGCCA(
  (model_list): ModuleList(
    (0-2): 3 x MlpNet(
      (layers): ModuleList(
        (0): Sequential(
          (0): Linear(in_features=100, out_features=256, bias=True)
          (1): BatchNorm1d(256, eps=1e-05, momentum=0.1, affine=False, track_running_stats=True)
        )
        (1): Sequential(
          (0): Linear(in_features=256, out_features=512, bias=True)
          (1): BatchNorm1d(512, eps=1e-05, momentum=0.1, affine=False, track_running_stats=True)
        )
        (2): Sequential(
          (0): Linear(in_features=512, out_features=128, bias=True)
          (1): BatchNorm1d(128, eps=1e-05, momentum=0.1, affine=False, track_running_stats=True)
        )
        (3): Sequential(
          (0): Linear(in_features=128, out_features=1, bias=True)
          (1): BatchNorm1d(1, eps=1e-05, momentum=0.1, affine=False, track_running_stats=True)
        )
      )
    )
  )
)
[ INFO : 2024-01-18 15:29:23,339 ] - DeepGCCA(
  (model_list): ModuleList(
    (0-2): 3 x MlpNet(
      (layers): ModuleList(
        (0): Sequential(
          (0): Linear(in_features=100, out_features=256, bias=True)
          (1): BatchNorm1d(256, eps=1e-05, momentum=0.1, affine=False, track_running_stats=True)
        )
        (1): Sequential(
          (0): Linear(in_features=256, out_features=512, bias=True)
          (1): BatchNorm1d(512, eps=1e-05, momentum=0.1, affine=False, track_running_stats=True)
        )
        (2): Sequential(
          (0): Linear(in_features=512, out_features=128, bias=True)
          (1): BatchNorm1d(128, eps=1e-05, momentum=0.1, affine=False, track_running_stats=True)
        )
        (3): Sequential(
          (0): Linear(in_features=128, out_features=1, bias=True)
          (1): BatchNorm1d(1, eps=1e-05, momentum=0.1, affine=False, track_running_stats=True)
        )
      )
    )
  )
)
[ INFO : 2024-01-18 15:29:23,339 ] - DeepGCCA(
  (model_list): ModuleList(
    (0-2): 3 x MlpNet(
      (layers): ModuleList(
        (0): Sequential(
          (0): Linear(in_features=100, out_features=256, bias=True)
          (1): BatchNorm1d(256, eps=1e-05, momentum=0.1, affine=False, track_running_stats=True)
        )
        (1): Sequential(
          (0): Linear(in_features=256, out_features=512, bias=True)
          (1): BatchNorm1d(512, eps=1e-05, momentum=0.1, affine=False, track_running_stats=True)
        )
        (2): Sequential(
          (0): Linear(in_features=512, out_features=128, bias=True)
          (1): BatchNorm1d(128, eps=1e-05, momentum=0.1, affine=False, track_running_stats=True)
        )
        (3): Sequential(
          (0): Linear(in_features=128, out_features=1, bias=True)
          (1): BatchNorm1d(1, eps=1e-05, momentum=0.1, affine=False, track_running_stats=True)
        )
      )
    )
  )
)
[ INFO : 2024-01-18 15:29:23,339 ] - DeepGCCA(
  (model_list): ModuleList(
    (0-2): 3 x MlpNet(
      (layers): ModuleList(
        (0): Sequential(
          (0): Linear(in_features=100, out_features=256, bias=True)
          (1): BatchNorm1d(256, eps=1e-05, momentum=0.1, affine=False, track_running_stats=True)
        )
        (1): Sequential(
          (0): Linear(in_features=256, out_features=512, bias=True)
          (1): BatchNorm1d(512, eps=1e-05, momentum=0.1, affine=False, track_running_stats=True)
        )
        (2): Sequential(
          (0): Linear(in_features=512, out_features=128, bias=True)
          (1): BatchNorm1d(128, eps=1e-05, momentum=0.1, affine=False, track_running_stats=True)
        )
        (3): Sequential(
          (0): Linear(in_features=128, out_features=1, bias=True)
          (1): BatchNorm1d(1, eps=1e-05, momentum=0.1, affine=False, track_running_stats=True)
        )
      )
    )
  )
)
[ INFO : 2024-01-18 15:29:23,339 ] - DeepGCCA(
  (model_list): ModuleList(
    (0-2): 3 x MlpNet(
      (layers): ModuleList(
        (0): Sequential(
          (0): Linear(in_features=100, out_features=256, bias=True)
          (1): BatchNorm1d(256, eps=1e-05, momentum=0.1, affine=False, track_running_stats=True)
        )
        (1): Sequential(
          (0): Linear(in_features=256, out_features=512, bias=True)
          (1): BatchNorm1d(512, eps=1e-05, momentum=0.1, affine=False, track_running_stats=True)
        )
        (2): Sequential(
          (0): Linear(in_features=512, out_features=128, bias=True)
          (1): BatchNorm1d(128, eps=1e-05, momentum=0.1, affine=False, track_running_stats=True)
        )
        (3): Sequential(
          (0): Linear(in_features=128, out_features=1, bias=True)
          (1): BatchNorm1d(1, eps=1e-05, momentum=0.1, affine=False, track_running_stats=True)
        )
      )
    )
  )
)
[ INFO : 2024-01-18 15:29:23,339 ] - DeepGCCA(
  (model_list): ModuleList(
    (0-2): 3 x MlpNet(
      (layers): ModuleList(
        (0): Sequential(
          (0): Linear(in_features=100, out_features=256, bias=True)
          (1): BatchNorm1d(256, eps=1e-05, momentum=0.1, affine=False, track_running_stats=True)
        )
        (1): Sequential(
          (0): Linear(in_features=256, out_features=512, bias=True)
          (1): BatchNorm1d(512, eps=1e-05, momentum=0.1, affine=False, track_running_stats=True)
        )
        (2): Sequential(
          (0): Linear(in_features=512, out_features=128, bias=True)
          (1): BatchNorm1d(128, eps=1e-05, momentum=0.1, affine=False, track_running_stats=True)
        )
        (3): Sequential(
          (0): Linear(in_features=128, out_features=1, bias=True)
          (1): BatchNorm1d(1, eps=1e-05, momentum=0.1, affine=False, track_running_stats=True)
        )
      )
    )
  )
)
[ INFO : 2024-01-18 15:29:23,339 ] - DeepGCCA(
  (model_list): ModuleList(
    (0-2): 3 x MlpNet(
      (layers): ModuleList(
        (0): Sequential(
          (0): Linear(in_features=100, out_features=256, bias=True)
          (1): BatchNorm1d(256, eps=1e-05, momentum=0.1, affine=False, track_running_stats=True)
        )
        (1): Sequential(
          (0): Linear(in_features=256, out_features=512, bias=True)
          (1): BatchNorm1d(512, eps=1e-05, momentum=0.1, affine=False, track_running_stats=True)
        )
        (2): Sequential(
          (0): Linear(in_features=512, out_features=128, bias=True)
          (1): BatchNorm1d(128, eps=1e-05, momentum=0.1, affine=False, track_running_stats=True)
        )
        (3): Sequential(
          (0): Linear(in_features=128, out_features=1, bias=True)
          (1): BatchNorm1d(1, eps=1e-05, momentum=0.1, affine=False, track_running_stats=True)
        )
      )
    )
  )
)
[ INFO : 2024-01-18 15:29:23,339 ] - DeepGCCA(
  (model_list): ModuleList(
    (0-2): 3 x MlpNet(
      (layers): ModuleList(
        (0): Sequential(
          (0): Linear(in_features=100, out_features=256, bias=True)
          (1): BatchNorm1d(256, eps=1e-05, momentum=0.1, affine=False, track_running_stats=True)
        )
        (1): Sequential(
          (0): Linear(in_features=256, out_features=512, bias=True)
          (1): BatchNorm1d(512, eps=1e-05, momentum=0.1, affine=False, track_running_stats=True)
        )
        (2): Sequential(
          (0): Linear(in_features=512, out_features=128, bias=True)
          (1): BatchNorm1d(128, eps=1e-05, momentum=0.1, affine=False, track_running_stats=True)
        )
        (3): Sequential(
          (0): Linear(in_features=128, out_features=1, bias=True)
          (1): BatchNorm1d(1, eps=1e-05, momentum=0.1, affine=False, track_running_stats=True)
        )
      )
    )
  )
)
[ INFO : 2024-01-18 15:29:23,339 ] - DeepGCCA(
  (model_list): ModuleList(
    (0-2): 3 x MlpNet(
      (layers): ModuleList(
        (0): Sequential(
          (0): Linear(in_features=100, out_features=256, bias=True)
          (1): BatchNorm1d(256, eps=1e-05, momentum=0.1, affine=False, track_running_stats=True)
        )
        (1): Sequential(
          (0): Linear(in_features=256, out_features=512, bias=True)
          (1): BatchNorm1d(512, eps=1e-05, momentum=0.1, affine=False, track_running_stats=True)
        )
        (2): Sequential(
          (0): Linear(in_features=512, out_features=128, bias=True)
          (1): BatchNorm1d(128, eps=1e-05, momentum=0.1, affine=False, track_running_stats=True)
        )
        (3): Sequential(
          (0): Linear(in_features=128, out_features=1, bias=True)
          (1): BatchNorm1d(1, eps=1e-05, momentum=0.1, affine=False, track_running_stats=True)
        )
      )
    )
  )
)
[ INFO : 2024-01-18 15:29:23,339 ] - DeepGCCA(
  (model_list): ModuleList(
    (0-2): 3 x MlpNet(
      (layers): ModuleList(
        (0): Sequential(
          (0): Linear(in_features=100, out_features=256, bias=True)
          (1): BatchNorm1d(256, eps=1e-05, momentum=0.1, affine=False, track_running_stats=True)
        )
        (1): Sequential(
          (0): Linear(in_features=256, out_features=512, bias=True)
          (1): BatchNorm1d(512, eps=1e-05, momentum=0.1, affine=False, track_running_stats=True)
        )
        (2): Sequential(
          (0): Linear(in_features=512, out_features=128, bias=True)
          (1): BatchNorm1d(128, eps=1e-05, momentum=0.1, affine=False, track_running_stats=True)
        )
        (3): Sequential(
          (0): Linear(in_features=128, out_features=1, bias=True)
          (1): BatchNorm1d(1, eps=1e-05, momentum=0.1, affine=False, track_running_stats=True)
        )
      )
    )
  )
)
[ INFO : 2024-01-18 15:29:23,339 ] - DeepGCCA(
  (model_list): ModuleList(
    (0-2): 3 x MlpNet(
      (layers): ModuleList(
        (0): Sequential(
          (0): Linear(in_features=100, out_features=256, bias=True)
          (1): BatchNorm1d(256, eps=1e-05, momentum=0.1, affine=False, track_running_stats=True)
        )
        (1): Sequential(
          (0): Linear(in_features=256, out_features=512, bias=True)
          (1): BatchNorm1d(512, eps=1e-05, momentum=0.1, affine=False, track_running_stats=True)
        )
        (2): Sequential(
          (0): Linear(in_features=512, out_features=128, bias=True)
          (1): BatchNorm1d(128, eps=1e-05, momentum=0.1, affine=False, track_running_stats=True)
        )
        (3): Sequential(
          (0): Linear(in_features=128, out_features=1, bias=True)
          (1): BatchNorm1d(1, eps=1e-05, momentum=0.1, affine=False, track_running_stats=True)
        )
      )
    )
  )
)
[ INFO : 2024-01-18 15:29:23,339 ] - DeepGCCA(
  (model_list): ModuleList(
    (0-2): 3 x MlpNet(
      (layers): ModuleList(
        (0): Sequential(
          (0): Linear(in_features=100, out_features=256, bias=True)
          (1): BatchNorm1d(256, eps=1e-05, momentum=0.1, affine=False, track_running_stats=True)
        )
        (1): Sequential(
          (0): Linear(in_features=256, out_features=512, bias=True)
          (1): BatchNorm1d(512, eps=1e-05, momentum=0.1, affine=False, track_running_stats=True)
        )
        (2): Sequential(
          (0): Linear(in_features=512, out_features=128, bias=True)
          (1): BatchNorm1d(128, eps=1e-05, momentum=0.1, affine=False, track_running_stats=True)
        )
        (3): Sequential(
          (0): Linear(in_features=128, out_features=1, bias=True)
          (1): BatchNorm1d(1, eps=1e-05, momentum=0.1, affine=False, track_running_stats=True)
        )
      )
    )
  )
)
[ INFO : 2024-01-18 15:29:23,339 ] - DeepGCCA(
  (model_list): ModuleList(
    (0-2): 3 x MlpNet(
      (layers): ModuleList(
        (0): Sequential(
          (0): Linear(in_features=100, out_features=256, bias=True)
          (1): BatchNorm1d(256, eps=1e-05, momentum=0.1, affine=False, track_running_stats=True)
        )
        (1): Sequential(
          (0): Linear(in_features=256, out_features=512, bias=True)
          (1): BatchNorm1d(512, eps=1e-05, momentum=0.1, affine=False, track_running_stats=True)
        )
        (2): Sequential(
          (0): Linear(in_features=512, out_features=128, bias=True)
          (1): BatchNorm1d(128, eps=1e-05, momentum=0.1, affine=False, track_running_stats=True)
        )
        (3): Sequential(
          (0): Linear(in_features=128, out_features=1, bias=True)
          (1): BatchNorm1d(1, eps=1e-05, momentum=0.1, affine=False, track_running_stats=True)
        )
      )
    )
  )
)
[ INFO : 2024-01-18 15:29:23,339 ] - DeepGCCA(
  (model_list): ModuleList(
    (0-2): 3 x MlpNet(
      (layers): ModuleList(
        (0): Sequential(
          (0): Linear(in_features=100, out_features=256, bias=True)
          (1): BatchNorm1d(256, eps=1e-05, momentum=0.1, affine=False, track_running_stats=True)
        )
        (1): Sequential(
          (0): Linear(in_features=256, out_features=512, bias=True)
          (1): BatchNorm1d(512, eps=1e-05, momentum=0.1, affine=False, track_running_stats=True)
        )
        (2): Sequential(
          (0): Linear(in_features=512, out_features=128, bias=True)
          (1): BatchNorm1d(128, eps=1e-05, momentum=0.1, affine=False, track_running_stats=True)
        )
        (3): Sequential(
          (0): Linear(in_features=128, out_features=1, bias=True)
          (1): BatchNorm1d(1, eps=1e-05, momentum=0.1, affine=False, track_running_stats=True)
        )
      )
    )
  )
)
[ INFO : 2024-01-18 15:29:23,339 ] - DeepGCCA(
  (model_list): ModuleList(
    (0-2): 3 x MlpNet(
      (layers): ModuleList(
        (0): Sequential(
          (0): Linear(in_features=100, out_features=256, bias=True)
          (1): BatchNorm1d(256, eps=1e-05, momentum=0.1, affine=False, track_running_stats=True)
        )
        (1): Sequential(
          (0): Linear(in_features=256, out_features=512, bias=True)
          (1): BatchNorm1d(512, eps=1e-05, momentum=0.1, affine=False, track_running_stats=True)
        )
        (2): Sequential(
          (0): Linear(in_features=512, out_features=128, bias=True)
          (1): BatchNorm1d(128, eps=1e-05, momentum=0.1, affine=False, track_running_stats=True)
        )
        (3): Sequential(
          (0): Linear(in_features=128, out_features=1, bias=True)
          (1): BatchNorm1d(1, eps=1e-05, momentum=0.1, affine=False, track_running_stats=True)
        )
      )
    )
  )
)
[ INFO : 2024-01-18 15:29:23,339 ] - DeepGCCA(
  (model_list): ModuleList(
    (0-2): 3 x MlpNet(
      (layers): ModuleList(
        (0): Sequential(
          (0): Linear(in_features=100, out_features=256, bias=True)
          (1): BatchNorm1d(256, eps=1e-05, momentum=0.1, affine=False, track_running_stats=True)
        )
        (1): Sequential(
          (0): Linear(in_features=256, out_features=512, bias=True)
          (1): BatchNorm1d(512, eps=1e-05, momentum=0.1, affine=False, track_running_stats=True)
        )
        (2): Sequential(
          (0): Linear(in_features=512, out_features=128, bias=True)
          (1): BatchNorm1d(128, eps=1e-05, momentum=0.1, affine=False, track_running_stats=True)
        )
        (3): Sequential(
          (0): Linear(in_features=128, out_features=1, bias=True)
          (1): BatchNorm1d(1, eps=1e-05, momentum=0.1, affine=False, track_running_stats=True)
        )
      )
    )
  )
)
[ INFO : 2024-01-18 15:29:23,339 ] - DeepGCCA(
  (model_list): ModuleList(
    (0-2): 3 x MlpNet(
      (layers): ModuleList(
        (0): Sequential(
          (0): Linear(in_features=100, out_features=256, bias=True)
          (1): BatchNorm1d(256, eps=1e-05, momentum=0.1, affine=False, track_running_stats=True)
        )
        (1): Sequential(
          (0): Linear(in_features=256, out_features=512, bias=True)
          (1): BatchNorm1d(512, eps=1e-05, momentum=0.1, affine=False, track_running_stats=True)
        )
        (2): Sequential(
          (0): Linear(in_features=512, out_features=128, bias=True)
          (1): BatchNorm1d(128, eps=1e-05, momentum=0.1, affine=False, track_running_stats=True)
        )
        (3): Sequential(
          (0): Linear(in_features=128, out_features=1, bias=True)
          (1): BatchNorm1d(1, eps=1e-05, momentum=0.1, affine=False, track_running_stats=True)
        )
      )
    )
  )
)
[ INFO : 2024-01-18 15:29:23,339 ] - DeepGCCA(
  (model_list): ModuleList(
    (0-2): 3 x MlpNet(
      (layers): ModuleList(
        (0): Sequential(
          (0): Linear(in_features=100, out_features=256, bias=True)
          (1): BatchNorm1d(256, eps=1e-05, momentum=0.1, affine=False, track_running_stats=True)
        )
        (1): Sequential(
          (0): Linear(in_features=256, out_features=512, bias=True)
          (1): BatchNorm1d(512, eps=1e-05, momentum=0.1, affine=False, track_running_stats=True)
        )
        (2): Sequential(
          (0): Linear(in_features=512, out_features=128, bias=True)
          (1): BatchNorm1d(128, eps=1e-05, momentum=0.1, affine=False, track_running_stats=True)
        )
        (3): Sequential(
          (0): Linear(in_features=128, out_features=1, bias=True)
          (1): BatchNorm1d(1, eps=1e-05, momentum=0.1, affine=False, track_running_stats=True)
        )
      )
    )
  )
)
[ INFO : 2024-01-18 15:29:23,339 ] - DeepGCCA(
  (model_list): ModuleList(
    (0-2): 3 x MlpNet(
      (layers): ModuleList(
        (0): Sequential(
          (0): Linear(in_features=100, out_features=256, bias=True)
          (1): BatchNorm1d(256, eps=1e-05, momentum=0.1, affine=False, track_running_stats=True)
        )
        (1): Sequential(
          (0): Linear(in_features=256, out_features=512, bias=True)
          (1): BatchNorm1d(512, eps=1e-05, momentum=0.1, affine=False, track_running_stats=True)
        )
        (2): Sequential(
          (0): Linear(in_features=512, out_features=128, bias=True)
          (1): BatchNorm1d(128, eps=1e-05, momentum=0.1, affine=False, track_running_stats=True)
        )
        (3): Sequential(
          (0): Linear(in_features=128, out_features=1, bias=True)
          (1): BatchNorm1d(1, eps=1e-05, momentum=0.1, affine=False, track_running_stats=True)
        )
      )
    )
  )
)
[ INFO : 2024-01-18 15:29:23,339 ] - DeepGCCA(
  (model_list): ModuleList(
    (0-2): 3 x MlpNet(
      (layers): ModuleList(
        (0): Sequential(
          (0): Linear(in_features=100, out_features=256, bias=True)
          (1): BatchNorm1d(256, eps=1e-05, momentum=0.1, affine=False, track_running_stats=True)
        )
        (1): Sequential(
          (0): Linear(in_features=256, out_features=512, bias=True)
          (1): BatchNorm1d(512, eps=1e-05, momentum=0.1, affine=False, track_running_stats=True)
        )
        (2): Sequential(
          (0): Linear(in_features=512, out_features=128, bias=True)
          (1): BatchNorm1d(128, eps=1e-05, momentum=0.1, affine=False, track_running_stats=True)
        )
        (3): Sequential(
          (0): Linear(in_features=128, out_features=1, bias=True)
          (1): BatchNorm1d(1, eps=1e-05, momentum=0.1, affine=False, track_running_stats=True)
        )
      )
    )
  )
)
[ INFO : 2024-01-18 15:29:23,339 ] - DeepGCCA(
  (model_list): ModuleList(
    (0-2): 3 x MlpNet(
      (layers): ModuleList(
        (0): Sequential(
          (0): Linear(in_features=100, out_features=256, bias=True)
          (1): BatchNorm1d(256, eps=1e-05, momentum=0.1, affine=False, track_running_stats=True)
        )
        (1): Sequential(
          (0): Linear(in_features=256, out_features=512, bias=True)
          (1): BatchNorm1d(512, eps=1e-05, momentum=0.1, affine=False, track_running_stats=True)
        )
        (2): Sequential(
          (0): Linear(in_features=512, out_features=128, bias=True)
          (1): BatchNorm1d(128, eps=1e-05, momentum=0.1, affine=False, track_running_stats=True)
        )
        (3): Sequential(
          (0): Linear(in_features=128, out_features=1, bias=True)
          (1): BatchNorm1d(1, eps=1e-05, momentum=0.1, affine=False, track_running_stats=True)
        )
      )
    )
  )
)
[ INFO : 2024-01-18 15:29:23,339 ] - DeepGCCA(
  (model_list): ModuleList(
    (0-2): 3 x MlpNet(
      (layers): ModuleList(
        (0): Sequential(
          (0): Linear(in_features=100, out_features=256, bias=True)
          (1): BatchNorm1d(256, eps=1e-05, momentum=0.1, affine=False, track_running_stats=True)
        )
        (1): Sequential(
          (0): Linear(in_features=256, out_features=512, bias=True)
          (1): BatchNorm1d(512, eps=1e-05, momentum=0.1, affine=False, track_running_stats=True)
        )
        (2): Sequential(
          (0): Linear(in_features=512, out_features=128, bias=True)
          (1): BatchNorm1d(128, eps=1e-05, momentum=0.1, affine=False, track_running_stats=True)
        )
        (3): Sequential(
          (0): Linear(in_features=128, out_features=1, bias=True)
          (1): BatchNorm1d(1, eps=1e-05, momentum=0.1, affine=False, track_running_stats=True)
        )
      )
    )
  )
)
[ INFO : 2024-01-18 15:29:23,339 ] - DeepGCCA(
  (model_list): ModuleList(
    (0-2): 3 x MlpNet(
      (layers): ModuleList(
        (0): Sequential(
          (0): Linear(in_features=100, out_features=256, bias=True)
          (1): BatchNorm1d(256, eps=1e-05, momentum=0.1, affine=False, track_running_stats=True)
        )
        (1): Sequential(
          (0): Linear(in_features=256, out_features=512, bias=True)
          (1): BatchNorm1d(512, eps=1e-05, momentum=0.1, affine=False, track_running_stats=True)
        )
        (2): Sequential(
          (0): Linear(in_features=512, out_features=128, bias=True)
          (1): BatchNorm1d(128, eps=1e-05, momentum=0.1, affine=False, track_running_stats=True)
        )
        (3): Sequential(
          (0): Linear(in_features=128, out_features=1, bias=True)
          (1): BatchNorm1d(1, eps=1e-05, momentum=0.1, affine=False, track_running_stats=True)
        )
      )
    )
  )
)
[ INFO : 2024-01-18 15:29:23,355 ] - Adam (
Parameter Group 0
    amsgrad: False
    betas: (0.9, 0.999)
    capturable: False
    differentiable: False
    eps: 1e-08
    foreach: None
    fused: None
    initial_lr: 0.05
    lr: 0.05
    maximize: False
    weight_decay: 1e-05
)
[ INFO : 2024-01-18 15:29:23,355 ] - Adam (
…
